checkpoint_actor.pth (torch_old, 541483 bytes, 6 tensors)

fc1.weight f4 [400, 33]
00000000: 87a0 38be 8388 81bd c257 7abd 0251 f23d
00000010: 7f26 fbbd 4a72 0c3b 3137 69bd 78d8 72bc
00000020: ada3 47bc 1be7 02bd db3f 03bd 2cd4 463d
00000030: 61b0 ebbb b82e 763e 46fa 243d 2506 45be
00000040: ebaa 67bc 53f0 f3bd da70 c13d 82d8 09be
00000050: 7a41 183e 6854 2abe ce7e af3d 0b87 09bd
00000060: 4dce cdbb 0b55 2e3d 5846 c0bd c7a5 23be
00000070: 5c9f d53d a076 28bb d882 b13d 82c2 863c
00000080: d9a0 bbbb e1f8 543e 3a94 46bd 5cf0 603e
00000090: b964 fd3c 072f e63d fec7 973d 9348 08bd
000000a0: 34d4 443d 88f7 52be 2fd7 173c 58a2 c23b
000000b0: 8e7f 7d3d b458 da3a 617b 39be 30ba 09bd
000000c0: e828 1fbe 26c4 3fbe 4fac 093e c806 a9bc
000000d0: 20a8 f73c 5200 9a3c 20b0 6fbc ce4d 0ebd
000000e0: add9 ccbc 6815 59bd 0aa7 563d c1e7 5c3d
000000f0: c7ee 97bd 145b ff3c c257 ed3c a464 713d
00000100: adfa a0bc 9d1e 29bd b819 0b3e 7ddc 0fbc
00000110: 453a 8c3e 958e d83c dfd2 273e 1f41 433e
00000120: b0e1 203e 4ca8 373d 962f 89bd 7bb4 ba3c
00000130: a23f 093d 60b4 393d ff54 cc3c 02b4 31be
00000140: b8e5 f5bd 2151 abbd d3ee 4abe 15a0 37be
00000150: 623e 0bbe 476a 04bd 8e09 093d 9361 fa3c
00000160: bba5 093e f4bb 40bd d665 e0bc 5ab1 fcbc
00000170: 89d9 493c f4f9 25bd 54da 7fbd 0d64 acbc
00000180: e154 4e3c d3c6 f5bc df24 15be ca4a 403d
00000190: 6bbe 5b3d 0250 a73d 5f7a cdbd 3866 263c
000001a0: 760f b83c 92cb a83d bd1b 27be b6d6 0d3e
000001b0: 0005 143e 5469 ef3b 44be 303e 90a3 0c3d
000001c0: 34b0 e03d 6fb7 6b3e 6125 a5bd 9413 73be
000001d0: ab0c 10be 80db ed3d 8da9 cdbe f14a 983d
000001e0: 1e28 17be 4c7c 893d cf6f a03c 65f7 0dbd
000001f0: 72f8 e23c bccb 25be cd19 15bd 54ce 013e
00000200: 5370 b1bc 4ec4 213d a29e 19bd 10c0 613e
00000210: df8b b63d ac69 8b3d 77d4 2e3e 349e 47bd
00000220: a2b8 353d 054f 20bd c477 0f3c 975b 17be
00000230: 921c c2bc 7b61 ff3d 0f11 6fbb 53c7 02bd
00000240: d682 a23d b511 02be 8864 283d 41b2 4dbc
00000250: 12fb 42bd 5a5a b0bc a7c4 983d bb34 29bd
00000260: 4884 5ebd 4c72 c63d 5c7e 273e 2328 adbd
00000270: 35e3 4e3d d499 d43d cbb1 1dbe 69bf 383b
00000280: 1fa7 b63a caa7 1bbd eade 14bd c858 123c
00000290: a2d7 e73d 4032 f03d 1026 d33d 6b23 fa3d
000002a0: a27f 80bd 893f 933d 46ea e7bc c87b 073e
000002b0: 29ad 5cbd 723e c6bc fb16 c93d 32c5 9d3c
000002c0: 5652 05bd c1bb 91bc b62f fa3d 75d7 80bc
000002d0: ad90 00be ed01 60be bfc5 2dbe 71cf 60be
000002e0: 1564 123e 9d38 b7bd f155 24be 6a4f 2f3d
000002f0: 3d1f 253e 2baf 223d d7ac c6bc 0c48 ad3d
00000300: 9f3e 263d 44dd dbbd 22aa 05bd 66c9 e5bd
00000310: 1167 013d d9c9 9ebd d653 76bc 306f 023d
00000320: eca5 39bd 0df9 d5bc 96fd 05bd 30c6 82bd
00000330: 1922 94bd e09e 1b3c c086 283d c506 853d
00000340: 37aa 403d 39e7 9abb 9284 003d 1879 15be
00000350: 7e97 0c3e ce32 423d 03a7 72bd fe11 993d
00000360: 1e5e ecbd c085 d03d 2344 a0bc f800 8ebd
00000370: 23eb c03d 61d6 e1bd c9a1 093b 9b68 d03d
00000380: c48e bfbd 28c1 88bc a2c9 113e d4f3 533c
00000390: 82f6 3e3d c049 25bd 29da c6bd 78ac 83be
000003a0: 1d76 573e 9904 ffbc ccb0 babc 16a7 18be
000003b0: d5c0 573d 6ce8 e5bd 937b e43c 1dba 43bc
000003c0: 462d 79bd e324 19bd c700 a43d 42ce d13a
000003d0: ff5f 5ebd 089e bcbd 90c2 8e3e bd52 8c3e
000003e0: 6858 42be df2c 95be 5cd0 78bc 6e22 f03d
000003f0: 317f 4e3d e052 b63d 7970 b43c 0f7a 5fbe
-0.18029986 -0.06324866 -0.06111885 0.11831857 -0.12263202 0.0021430426 -0.0569374 -0.014822118
-0.012185019 -0.03195868 -0.03204332 0.048542187 -0.007192657 0.2404126 0.04027774 -0.19240625
-0.014139871 -0.119110726 0.09445353 -0.13461497 0.14868727 -0.16633761 0.08569108 -0.033576053
-0.0062806965 0.042561572 -0.09388417 -0.15981208 0.10430786 -0.0025705472 0.086675346 0.01645017
-0.0057259616 0.20798065 -0.048481204 0.2196669 0.030931817 0.112394385 0.07411192 -0.033272337
0.048053935 -0.20602238 0.009267612 0.005939763 0.061889224 0.0016658516 -0.18113472 -0.033624828
-0.15542948 -0.18727168 0.13444637 -0.020633116 0.030231535 0.01879898 -0.014629394 -0.03474217
-0.02500614 -0.05299893 0.052405395 0.053931955 -0.0741859 0.03117136 0.02897251 0.05893387
-0.019650782 -0.04128896 0.1358403 -0.008780596 0.27388206 0.026435176 0.16389035 0.1906781
0.15711093 0.044838235 -0.066985294 0.022791138 0.03350795 0.045338035 0.024942873 -0.17353824
-0.12006706 -0.083650835 -0.19817667 -0.1793216 -0.13598016 -0.032327916 0.033456378 0.030564105
0.13442127 -0.047054246 -0.02739231 -0.030846287 0.012319931 -0.040521577 -0.062464073 -0.021043802
0.012593479 -0.030002033 -0.14564846 0.046946324 0.053648394 0.08169557 -0.10033106 0.010156207
0.02246831 0.08241953 -0.16319175 0.13851437 0.14455032 0.0073062573 0.1726008 0.034335673
0.10971108 0.23019193 -0.0806377 -0.23737937 -0.14067332 0.11614132 -0.4016842 0.07436169
-0.14761397 0.06713161 0.019584564 -0.034659762 0.027706359 -0.16191 -0.03640156 0.12676364
-0.021660006 0.03949385 -0.0375048 0.22045922 0.08913397 0.06807265 0.17073236 -0.04873486
0.044365533 -0.03913786 0.008756582 -0.14781033 -0.023695264 0.12469765 -0.0036478674 -0.03192837
0.07935111 -0.12702067 0.0411115 -0.012554706 -0.04760272 -0.021527458 0.074593835 -0.041310053
-0.054325372 0.09689769 0.16356796 -0.08454921 0.05050965 0.10380903 -0.15399854 0.0028190261
0.0013935304 -0.038001813 -0.0363454 0.0089323 0.113204256 0.117283344 0.10309994 0.12213787
-0.06274344 0.07189853 -0.028309952 0.13230813 -0.053876076 -0.024199698 0.09818836 0.01925907
-0.032549225 -0.017789723 0.122161314 -0.015727738 -0.1255519 -0.21875735 -0.16969965 -0.21954133
0.14295991 -0.08946345 -0.16048409 0.042800345 0.16125198 0.039717834 -0.024252338 0.084610075
0.040587064 -0.107355624 -0.032632954 -0.11220054 0.031592432 -0.07753343 -0.0150346365 0.031844318
-0.04532425 -0.026119733 -0.03271254 -0.063854575 -0.07233066 0.009498328 0.041144133 0.06495432
0.04703733 -0.004727271 0.03137643 -0.14596975 0.13729665 0.047411732 -0.059241306 0.07474135
-0.11541389 0.10181761 -0.01956374 -0.069337785 0.09419849 -0.11027218 0.0021000972 0.10176202
-0.09353402 -0.016693667 0.14237073 0.012936551 0.046621807 -0.040353537 -0.097095795 -0.2571752
0.2104115 -0.031130122 -0.022789381 -0.14907488 0.052674133 -0.112259716 0.027890956 -0.011946228
-0.06083419 -0.037388694 0.08007961 0.0016006904 -0.054290768 -0.092098296 0.27882814 0.27406874
-0.18979037 -0.29135796 -0.0151863955 0.11725317 0.050414268 0.08902526 0.022026287 -0.21823905

fc1.bias f4 [400]
00000000: a44b 2a3e b86d 5d3e fe43 d63d 9aad 1e3d
00000010: 1318 22be 740f 433d 6d1b cd3b 5295 b83d
00000020: d23c 85bd afbb 87be d6fc 2abe 25a5 8fbd
00000030: 1c42 0cbe 1ee3 6fbe 10d5 693e ff7d 183e
00000040: 7728 16bc f370 33be 45d3 33be 478a 39be
00000050: d1e9 25be 35ce a53d 4bdd d6bd bd38 d9bc
00000060: 8264 293d 82a3 d33d 4096 ba3d ed11 44be
00000070: 8964 0dbe fbb4 d93d b474 433e 991f 7b3b
00000080: ff23 91bd 7984 86bd b272 1c3e f072 a83d
00000090: 3573 ccbd 4e31 623d bada d43d 4e90 6f3d
000000a0: 883e f5bd a020 d5bd 9908 85bd a966 ca3d
000000b0: d659 a93d 9188 cabc 93bd 123d bb1f 343e
000000c0: 6bdf 033e 9f01 63bd 968c 953e 44d0 fdbb
000000d0: a632 583e 4b8e 2ebe 7afb 6c3e 57e3 3e3e
000000e0: d172 10be d826 91be e7dd 373a 24ed 9b3d
000000f0: 3146 c9bd 49de 2f3c 2cea a13c 8eed c23d
00000100: 2d25 583e c219 b33d bf0c fabd 49f0 48bb
00000110: b891 043e b1b4 5abe ed58 5fbd 67ec 90bd
00000120: e97b 3ebe 5389 053d 495f 293e 5cc4 893d
00000130: 160c 123e 5998 f53d 7f35 ed3c 5fa5 6abe
00000140: e82e 063e fc7c 39be efaf db3d 0097 0e3d
00000150: 03f2 ed3d 02fa ef3b 7b7f 183e 9d87 f1bc
00000160: d52f 8f3b 32c0 ea3d 2ade b53d 3ca0 dcbd
00000170: 3a32 57be 1a3e 8e3d 55b6 0b3d e701 91be
00000180: 096c db3d 6e58 1d3d 4764 d3bd 7aff 8e3d
00000190: 8042 cdbc be69 6a3d 1104 05bd ad3f 2a3e
000001a0: 9966 0e3e bdd6 e0bd c00e 193e d859 8a3d
000001b0: 3ec3 2ebe 6910 803e 0ec5 57bd 88a5 6ebd
000001c0: a926 89bd d36f 24bd 52cb bcbd 209b 69bd
000001d0: ad93 42be 950b 1a3e 2ba4 f83d 8f36 433d
000001e0: 1bc6 293e 272e ebbd 4c0a 08bd d441 273e
000001f0: 80fe 233e 2326 183d 8aac 0c3e 6a55 623e
00000200: 13a1 093e 99e6 65be c511 213e d6d6 30bd
00000210: 4327 80bd 3bf2 5fbe bac2 af3d e80c a33d
00000220: 9155 313d 046d 9a3e ad4a b33b c6d2 d6bd
00000230: c22d e23d b2c3 d4bc f821 4ebe 6928 173e
00000240: a8c5 bebd a011 32be 21a2 d8bd 123f d1bd
00000250: b94c d33c 9a96 52bd af58 ae3d 7b25 943c
00000260: ad09 6cbe 5432 e33c 48f4 c63d b997 9ebd
00000270: fee4 65be 9161 a9ba 3713 28be 9e9f 753e
00000280: 4e95 aabe 61e4 dd3c 0576 29be b0ef 4fbe
00000290: fc64 a03e 055e 4f3d 5b4a 85bd 870c 383e
000002a0: 4cc2 0b3e e1a0 05be 7842 54be a5ec 41bd
000002b0: f686 933d 32d4 5bbd afca 943d 8442 1abc
000002c0: 2faf 103e f8c6 c83d c58b dfbc ed2c 423e
000002d0: bb65 283d 8c29 3abe 7e6f 9c3d 81b2 58be
000002e0: f74f 8b3d b0e4 143e 8993 debd 6966 59be
000002f0: 9c12 21be 77c7 bebd a48d 27be 1925 d23d
00000300: 8beb eabd 5edb 8c3b ce69 53be 7f6d 0abc
00000310: 3c24 55be 948e 01be cb94 80bd 7732 903d
00000320: bb18 e6ba de8d 983d 51f7 a9bd d957 de3d
00000330: 21fe 9a3d fd2a b53d 275e edbd cc8b 093e
00000340: 07ca 563b 8ae3 d23d 65c9 d33d 06bc b5b7
00000350: aae0 6b3d 0e10 803d ad11 fa3c fd07 763d
00000360: 9a66 2d3e 726c 1bbe bc2d d0bc b43f e33d
00000370: 5029 babd 28d8 093e 51e1 a53c bd23 b7bd
00000380: 8e55 e43c 2e90 19be 3adf e7bd 92f6 01be
00000390: c82f c63d 8832 743d 8e01 69bd 7358 723e
000003a0: f05b 9fbd 8473 20bd fb66 593d e0c6 993e
000003b0: 2490 2f3d 0a12 de3d 7b04 603d 35c0 3cbb
000003c0: cded f1bd 53ab c0bd 1286 0b3e 8d4f 85bc
000003d0: 0288 74bc b7ce 303d a115 c1bd 67e6 19be
000003e0: 401a 4bbd 9bab 343c 1aab a8bc b3c9 0e3d
000003f0: 952c 07be 1677 3dbe 9a0c 1d3e 2919 143e
0.16630417 0.21623886 0.10462187 0.038739778 -0.15829496 0.04762216 0.006259373 0.090128556
-0.06505741 -0.2651038 -0.16698012 -0.07013921 -0.13697094 -0.23426482 0.22835183 0.14891814
-0.009164921 -0.17523555 -0.17561062 -0.18119155 -0.16202475 0.080959715 -0.10491427 -0.026516313
0.041355617 0.10333921 0.09110689 -0.19147463 -0.13807882 0.106302224 0.19087487 0.0038318394
-0.07086944 -0.06568236 0.15278128 0.082250476 -0.099829115 0.055222802 0.10393281 0.05848723
-0.119748175 -0.10406613 -0.064957805 0.09882862 0.08269088 -0.024723323 0.035825323 0.17590229
0.12878196 -0.055421468 0.2920882 -0.0077457745 0.21113071 -0.17046468 0.23142806 0.18641411
-0.14106299 -0.28349948 0.0007013962 0.0761359 -0.09827841 0.010734149 0.019764982 0.09517966
0.21107931 0.08745147 -0.122094624 -0.00306608 0.12946212 -0.21357991 -0.054528166 -0.0707634
-0.18601955 0.032601666 0.16540255 0.06726906 0.14262423 0.11991949 0.028956173 -0.22914647
0.13103831 -0.18114084 0.10726916 0.034811974 0.11618426 0.0073235044 0.1489238 -0.02948361
0.0043697157 0.114624396 0.08880265 -0.1077275 -0.21015254 0.06945439 0.034109432 -0.28321764
0.107139654 0.03841441 -0.10321861 0.06982322 -0.025056124 0.05722975 -0.03247458 0.16625853
0.13906325 -0.10978458 0.14947033 0.067554176 -0.17066666 0.2501252 -0.05267816 -0.05826333
-0.06696827 -0.040145706 -0.09218468 -0.057032704 -0.19001646 0.1504348 0.121406876 0.047659453
0.16579477 -0.11483412 -0.033212945 0.16333705 0.16015053 0.037145745 0.13737693 0.22102895
0.13440351 -0.22451247 0.15729435 -0.043173634 -0.062574886 -0.21869747 0.08582063 0.07961446
0.043294493 0.30161297 0.0054715485 -0.104894206 0.11043884 -0.025972221 -0.20130146 0.14761509
-0.09315044 -0.17389536 -0.10577799 -0.10217108 0.02579342 -0.051413156 0.08513009 0.018084278
-0.23050566 0.02773396 0.09714562 -0.077437826 -0.22450635 -0.0012922754 -0.1641358 0.2398667
-0.33317035 0.027086439 -0.16548927 -0.20306277 0.31327045 0.050626773 -0.06508323 0.17973529
0.13648337 -0.13049652 -0.20728481 -0.047344822 0.07203476 -0.053669162 0.07265221 -0.009415273
0.14129327 0.09803575 -0.027288327 0.1896245 0.041112643 -0.18179911 0.07638453 -0.21161844
0.068023615 0.14540362 -0.10867984 -0.21230473 -0.15729755 -0.09315389 -0.16362625 0.10260982
-0.114707075 0.0042986115 -0.2064583 -0.008448957 -0.20814604 -0.12652045 -0.0627838 0.070408754
-0.0017554978 0.07448934 -0.08299125 0.10856599 0.075680025 0.0884609 -0.11590224 0.13432235
0.0032774226 0.10297306 0.10341147 -2.1664437e-05 0.057587303 0.06253062 0.030526007 0.060066212
0.1693367 -0.15178087 -0.025412433 0.11096135 -0.09089911 0.13461363 0.02024904 -0.089423634
0.027872827 -0.14996406 -0.11321874 -0.12691715 0.09677082 0.059618503 -0.05688625 0.23666553
-0.077812076 -0.039172664 0.053076725 0.30034542 0.042862073 0.108432844 0.054691773 -0.0028801088
-0.11812935 -0.094076775 0.13625363 -0.016273284 -0.014925005 0.04316589 -0.094279535 -0.15029298
-0.04958558 0.011027242 -0.0205894 0.034860324 -0.132006 -0.18502459 0.15336838 0.14462723

fc2.weight f4 [300, 400]
00000000: 1433 0abd cd7e 69be b740 8dbe cbef 433d
00000010: 0b09 3ebe 6fa7 66bd f077 26bd 40c5 2fbd
00000020: 1f79 14bd e90b 2cbe 98d3 6bbd 52a7 453e
00000030: 8e40 273e 856c fc3c 2678 413d 36b9 c63a
00000040: 4467 a2bd 1b52 a8bc 1544 ae3d 38fb 353e
00000050: 067d 52bd 8a5d a03c c426 d8bd 5779 243d
00000060: 45fc 903d 869d 07be 2727 38bd 9de4 2dbc
00000070: c088 fc3d a439 b1bd c950 afbd c5ee a9bd
00000080: 1739 d5bd 5071 4cb9 2a3b 95bd 89d9 ca3c
00000090: 94a2 893c 2bb8 523e 6b42 013e 9acf b4bc
000000a0: 3c00 d4bd 1a9d 853c b43d aa3d 7f95 273e
000000b0: 4cf6 71bd 9098 c1bd e572 fbbd cda8 30bd
000000c0: 1903 16bd a85a d1bd 4c47 a0bd c9f5 2c3e
000000d0: d2ba 483d 0ddc b0bc e3d0 113e 2665 82be
000000e0: b1b7 af3c 1705 643d 4ab0 a5bd 6bda 993d
000000f0: 6617 17be 30ab 8ebe 962b c9bc b7be 16be
00000100: aa74 97bd fba5 5ebe df2f 113e bbc3 01bd
00000110: 2bc8 5ebe 5736 96bd fa01 0f3d b092 083d
00000120: 70f2 1c3e 6301 413d efe5 aa3d 756a 0f3d
00000130: da40 f6bc aef9 f4bd 50e1 913d a1fe 173e
00000140: f700 9dbd 6c5a 103e 96c0 cf3d 7f3e 5a3d
00000150: 24e7 4fbe 42c0 5e3d ed78 343d 7475 adbd
00000160: 58e2 613e 653a bfbd 5ba6 e0bd f26c 40bd
00000170: 0954 903d 1f33 14bd cd65 7abd f923 ab3c
00000180: 69fa d43d f829 efbd e545 493d b929 883d
00000190: b000 c33d dfd4 3dbd d7e7 5bbd 8bf0 02be
000001a0: a761 a6bd 6550 f83b 0c50 a7be 4b28 2b3c
000001b0: 1f18 ca3c 426e b53d 9e6d 48be ff0a 5ebd
000001c0: 006d d23d ff71 823d 34d8 bf3d 8a8b 353c
000001d0: d08f f8bd 1d0e f33d a4a0 ffbd cbe1 7b3d
000001e0: 4c30 95bd feea 00bd 5ffd 2b3d 2777 4a3c
000001f0: 6df5 95bd fed3 d9bb 1653 2e3e 9f1f 35bd
00000200: 74a4 a7bd 7c91 743d e180 8f3c 355e 073e
00000210: fc78 8f3d 2910 783b a366 513d 0025 1d3e
00000220: de1f 65bd a831 123d 5f20 473d 5f82 9a3d
00000230: 1727 983d 2d38 4cbd a68a 43bd c5bd 16bd
00000240: a477 90bc 53e9 54be 60d3 94bd 23da a23c
00000250: 013f a1bd 8bdf 9abd aca1 2ebe eb4b a5bd
00000260: af83 363d 5bb6 54be 510f 38bd dbda af3d
00000270: bd1c 963d 99cb e93b c93b 38bd 5e89 0cbc
00000280: 889c 34be 1ee6 65be 198b b53d 1fa0 1e3e
00000290: e2bc 64bd ec69 603e a841 68be 6f37 89bd
000002a0: 4047 04be 1ecd 5bbc d38d c93d 21d5 c8bc
000002b0: 34f5 29bd 2113 8fbd 2407 b5bd 89ab 2e3e
000002c0: 7085 443c 4f3a 92bd 170a 97bc 87a2 23be
000002d0: 29b0 0bbd 7ed6 683d 7265 993d 8973 cdbc
000002e0: fc46 bbbd 6db9 01be b298 f73a f14a b23d
000002f0: 642c ad3d 8a9d 4dbe 1ca2 79bd 7e16 c3bc
00000300: 21c3 483b 5aa8 2aba 783e 013e b110 c53d
00000310: a3e1 ccbc 16bf b03d fb40 4abd 47d6 29bc
00000320: 034a 49be 16ac ffbd 6863 10bd 16e8 4c3e
00000330: ad8d ea3c f943 c5bc f0aa debc 563d 11bd
00000340: 856a 4fbd 0949 8dbd c6e3 b63d f1ab 4dbe
00000350: b9b6 a53a 23b4 46bc 459d 5d3d 154a b43d
00000360: 4d8b 193b 2718 94bb c09c dcbc 6e22 0dbe
00000370: 3646 543d 7238 20be 8559 b43b 7af6 ddbc
00000380: fdc1 93be 9dfc eebd ec40 393d fd5e 4a3d
00000390: b6a1 22bd ad49 a1bd a70b c4bc ed1a 5b3e
000003a0: 9ddb 8cbd 1314 19bd 862e 8f3d 5e9f 703d
000003b0: fd52 3f3c 5f30 9fbd e324 89bc 019b 6cbe
000003c0: 8910 253e 6d55 6bbe 3554 b93d 4d5c 3c3d
000003d0: 22fe 15be 0c20 2fbe fae2 e23c f16d c2bd
000003e0: bfe9 8a3c 4808 043e dc5f 8cbd cfd2 bdbc
000003f0: 1642 79bd 8f0c 87bd 2b60 3e3d 0f11 e43d
-0.03374012 -0.22802277 -0.27588436 0.047836106 -0.18558137 -0.05631202 -0.040641725 -0.04291272
-0.036248323 -0.16801418 -0.05757484 0.19302109 0.1633322 0.030813465 0.047233723 0.0015161398
-0.079298526 -0.020546963 0.08509079 0.17771614 -0.051388763 0.019575853 -0.10554269 0.04015478
0.070793666 -0.13243684 -0.044959214 -0.010613588 0.123307705 -0.08653572 -0.085603304 -0.08297495
-0.1041128 -0.00019497168 -0.07286675 0.024761932 0.016801156 0.20578067 0.12622993 -0.022071648
-0.10351607 0.016310263 0.0831255 0.16365622 -0.059072778 -0.09452927 -0.12277774 -0.04312973
-0.036624048 -0.102223694 -0.07826099 0.16890635 0.04900629 -0.021589303 0.1423984 -0.25467795
0.021449896 0.055668917 -0.08090265 0.07512363 -0.1475502 -0.2786498 -0.024556916 -0.1472119
-0.07395299 -0.21743004 0.14178418 -0.031680804 -0.21756046 -0.07334583 0.034913994 0.033343017
0.15326858 0.047120463 0.083446376 0.035013635 -0.03006022 -0.11961685 0.07123053 0.14843227
-0.076662 0.14096993 0.10144155 0.053282257 -0.20303017 0.05438257 0.044060636 -0.08469668
0.22059 -0.0933731 -0.1096923 -0.0469789 0.070472784 -0.036181565 -0.06113224 0.020891177
0.103993244 -0.11677927 0.049138922 0.06648583 0.095216155 -0.046345588 -0.053687897 -0.12787072
-0.081240945 0.007577943 -0.32678258 0.010446618 0.024669705 0.08858921 -0.19573066 -0.054209705
0.10274696 0.06369399 0.09367409 0.011080632 -0.12136805 0.11867926 -0.12481812 0.06149463
-0.072846025 -0.031474106 0.04198968 0.01235751 -0.07322202 -0.006647586 0.17023882 -0.04421961
-0.08185664 0.059709057 0.017517509 0.13219531 0.07005498 0.003785143 0.051123273 0.15346146
-0.055938594 0.035691887 0.048614856 0.075443976 0.07429331 -0.04985826 -0.047739647 -0.036802072
-0.017635174 -0.20792131 -0.07266879 0.019879406 -0.07873345 -0.07562169 -0.1705386 -0.08071121
0.044559177 -0.20772688 -0.044936482 0.08586665 0.073297 0.0071348664 -0.04497889 -0.008577673
-0.17637837 -0.22451064 0.088644214 0.15490769 -0.055844195 0.21915406 -0.22681296 -0.06700026
-0.12917805 -0.013415603 0.09841504 -0.02451569 -0.04149361 -0.069860704 -0.088392526 0.17057623
0.011994705 -0.07140028 -0.018437428 -0.15979968 -0.034103546 0.05684518 0.07490052 -0.025079506
-0.091443986 -0.1266839 0.0018890111 0.087057 0.084557325 -0.20079628 -0.060945615 -0.023814436
0.0030633884 -0.00065100717 0.12621486 0.09622324 -0.025009936 0.08630197 -0.049378376 -0.010366029
-0.1965714 -0.12483995 -0.03525105 0.20010409 0.02863201 -0.024080263 -0.027181119 -0.035458885
-0.050638694 -0.06898696 0.08930163 -0.20085122 0.0012642957 -0.012127909 0.054105062 0.088031925
0.0023428977 -0.0045194807 -0.026930213 -0.13782665 0.05182477 -0.15646532 0.0055038356 -0.027095068
-0.2885894 -0.11669276 0.04522793 0.049406994 -0.039705 -0.07875381 -0.023931338 0.2139699
-0.068778254 -0.03737266 0.069912955 0.058745734 0.011677501 -0.07772898 -0.016741222 -0.23106004
0.16119589 -0.22981806 0.09049264 0.045986462 -0.14647725 -0.17102069 0.027696121 -0.09493626
0.016957162 0.12893784 -0.06854221 -0.02317181 -0.06085404 -0.06594192 0.04647843 0.11136066

fc2.bias f4 [300]
00000000: 0cca a7bd a32e 62bc c0f0 efbc f8ff 95bd
00000010: d6e2 ed3a 6b03 8f3c a5a0 8ebb 2df0 c7bd
00000020: d63e 82bc 7f4e 1b3d ecb4 93bd 9d75 9fbc
00000030: af1b aabd 27c2 80bd f3dd cebc 5ee9 6d3c
00000040: d580 62bd de35 4fbc 6c8f dcbb 7062 14bd
00000050: 94de 04bd d88f 293d 02a6 c2ba d355 e6bd
00000060: 7fc0 98bb a729 973b fd29 8bbd e16c 9fbc
00000070: 294f 55bc a4c2 68bd e61d 043d 85da 6d3c
00000080: fbb4 9d3c 3dfc f8bc 92d2 023d 2bfd 09bc
00000090: 9b49 dabd c588 75bd f59e e63c cd85 a4bc
000000a0: 2c60 26bd dee2 a0bc c75a 1c3d 5ba8 9bbd
000000b0: 4bd5 91bd 224c 0bbd 5403 83bc 4178 5dbd
000000c0: 712f 86bd 739a 613d 1d23 36bd 125c 83bd
000000d0: b9f7 81bd ef2e eb3b 4116 a03c 734d 81bd
000000e0: 1134 9dbd 9a8a 8cbd fff5 29bd 005f 22bd
000000f0: 9e80 00bb 3b5f eb3a b222 22bd 4da7 603c
00000100: 0ec7 27be da98 45bc 71fa a3bc fc12 79bc
00000110: 8e6a 333d 4807 32bb 3d2d 8f3b 339e 703d
00000120: 5aca c6bc efc3 f0bc 0963 8c3d 29f6 1e3d
00000130: 36ed 23bc 019e 1ebd 3ecd 373d d603 9abd
00000140: ad25 9cbd aac7 47bc 2984 9f3c 7297 39bd
00000150: 0afc efbc 3c22 49bc 2b2a 58bc a9be 03bd
00000160: 3708 623d d050 443d e637 1ebd ab2a 89bd
00000170: b7f0 cdbd b93f 2cbd 0eec edbc 43b5 b13c
00000180: 2f15 b9bd cf85 14bd 2602 913d 20fd 11bd
00000190: 952f fcbd ae5d 5e3d bdd9 ac3c d30a 10bd
000001a0: 0003 48bd 27f5 e0bd e3c5 d5bd fd30 4fbd
000001b0: 668d 44bc 4760 d63c da9a 183c 10e6 9ebc
000001c0: d0b1 88bc 2743 833d d6f7 9f3c 58e4 d2bd
000001d0: 6e99 cbbc 3eff 17bd f91f 3abd fbb1 0fbd
000001e0: b9d8 4a3c 1d3d d1bd e5b2 bc3a a890 5bbd
000001f0: b1a3 87bc 5b71 a9bc a6e7 14bd 4eca 133d
00000200: e578 a83d 15f2 c3bd 6092 0dbd 99ed b0bd
00000210: 4784 c83b 84fe c1bc bc61 89bc f885 13bd
00000220: 7895 3fbb 6b5d c6bd 1495 37bd 5c67 923c
00000230: ed3d 42bd 4a5a f43c f20e 413c d78a dabd
00000240: 14a9 b8bd 6107 953d 6dce 40bc f2c7 f2bd
00000250: 6049 6a3c 779e 903d 82eb 17bc 2ef4 62bd
00000260: e57a 8d3b 6d1c 9cbd 9bb1 f5bc f4a8 9fbd
00000270: 4aab 76bd 65e2 bcbc 2b44 88bd be94 443d
00000280: d8d0 83bc e3ac fbb9 326d 1dbc 686f e7bc
00000290: 5921 10bc a097 d73c 17dd acbd 7852 8dbd
000002a0: 1ab7 76bd 20a1 65bd 9e24 873d 9824 31bd
000002b0: 787d eebb 3ffe 9dbd b016 93bd 6d90 f5bd
000002c0: 0e1b abbd 364b 0ebe 23ff 4bbd f4e6 73bd
000002d0: 84c7 423d 1850 2abd 2a4e 8c3d 337c ab3b
000002e0: a751 76bd 4c9d 163c 852f 633d c1b2 173c
000002f0: fbcb 7dbd e1a2 84bd d569 ae3c 274b 15bd
00000300: 85f4 583d 58f2 96bd cc95 febc 3704 7b3d
00000310: f0ac 49bd 299f 48bd 3e44 963c 3ef8 bbbd
00000320: 49ea 12bb 7add b7bd 528c 94bc 1ca6 f0bb
00000330: 9d56 acbd daf9 803a b453 d3bd bdb7 1b3c
00000340: 1344 973c 0222 1abd 1669 22bd 114c f7bd
00000350: 48f1 9bbc eba5 4f3d 5452 dfbd 0375 94bd
00000360: 875d e03b d7b6 95bd ccf7 ebbd 502c 66bd
00000370: 9cc5 77bd 41d2 9dbd c12d 13bd 257b f0bd
00000380: 065a babd 2afa 73bd 39c2 f3bc b469 a0bc
00000390: 5e38 edbc 4187 2cbd 8053 57bc a36a 15bc
000003a0: ec84 953c e6b0 033d b69d 56bd 2b47 e1bc
000003b0: 800a 763d b405 76bd e710 e63b f009 c73c
000003c0: 5951 5dbd 404b 37bd 6895 91bd 1767 52bd
000003d0: 6d9f f3bd 64ed ccbd b438 27bd 418b 27be
000003e0: 0225 2f3c dc76 bc3c 473c 9abd 5b8f 793d
000003f0: 9693 1bbc 979b 8b3b 43ba b0bb 4ac2 9e3c
-0.08192834 -0.013805064 -0.029289603 -0.07324213 0.0018149267 0.017457685 -0.0043526464 -0.09762607
-0.015899103 0.037916657 -0.072122425 -0.019465262 -0.083060615 -0.062870316 -0.025252318 0.014520971
-0.055298645 -0.01264712 -0.0067309644 -0.03622669 -0.03243883 0.041396946 -0.00148505 -0.112468384
-0.004661619 0.0046131196 -0.06795118 -0.019461097 -0.0130193615 -0.05682625 0.032255076 0.014517431
0.019251337 -0.030393714 0.031939097 -0.008422176 -0.106585704 -0.059944887 0.028151968 -0.020083332
-0.04061906 -0.019639429 0.03817251 -0.07600471 -0.071207605 -0.034008153 -0.015992798 -0.05406976
-0.065520175 0.055078935 -0.04446708 -0.064140454 -0.063460775 0.007177226 0.019541861 -0.063136004
-0.076759465 -0.06862374 -0.041494366 -0.03964138 -0.0019607912 0.0017957458 -0.03958387 0.013711763
-0.16384527 -0.012060368 -0.02001688 -0.01520228 0.04380279 -0.0027164984 0.0043694065 0.05874462
-0.02426641 -0.029390303 0.06854827 0.038808975 -0.010005286 -0.038724903 0.04487347 -0.07520263
-0.076243736 -0.0121936 0.019472199 -0.045310445 -0.029294986 -0.0122762285 -0.013193647 -0.03216425
0.055183616 0.04792863 -0.038627528 -0.066975914 -0.10055678 -0.04205296 -0.029043224 0.021692878
-0.090372436 -0.036260422 0.07080488 -0.03564179 -0.12313763 0.05428856 0.02109992 -0.035166573
-0.048830986 -0.10984259 -0.104381345 -0.05058383 -0.011996603 0.026168955 0.009314263 -0.019396812
-0.01668635 0.06409293 0.019527357 -0.10297459 -0.024853434 -0.037108652 -0.045440648 -0.035081845
0.012380772 -0.102167346 0.0014396576 -0.05360475 -0.016557546 -0.020683935 -0.03635373 0.036081605
0.08226184 -0.09567658 -0.034563422 -0.08639068 0.0061192843 -0.023680933 -0.016770236 -0.036016434
-0.0029233377 -0.09685787 -0.044819906 0.017871551 -0.04742234 0.02982821 0.011783348 -0.10671013
-0.09016624 0.07276798 -0.011767966 -0.11854543 0.0142997205 0.07061475 -0.009272458 -0.05540865
0.0043176287 -0.07622609 -0.029991915 -0.07795897 -0.060221948 -0.023057172 -0.06653627 0.047993414
-0.016090795 -0.0004800326 -0.009608554 -0.028251365 -0.008797013 0.026317418 -0.08440607 -0.06900495
-0.060233213 -0.056061864 0.06598781 -0.04324779 -0.0072781406 -0.07714509 -0.07182062 -0.11990438
-0.0835477 -0.13895878 -0.049803864 -0.059546426 0.047553554 -0.04158029 0.06850846 0.0052333116
-0.060136463 0.009192776 0.05546524 0.009258927 -0.06196211 -0.06476379 0.021290699 -0.036448624
0.052967567 -0.07370442 -0.031077288 0.061283316 -0.04923719 -0.048979912 0.018343087 -0.09178208
-0.0022417477 -0.0897779 -0.018133316 -0.0073440205 -0.08414958 0.0009840087 -0.103186995 0.009504256
0.018465078 -0.03763009 -0.039651 -0.120750554 -0.01903595 0.05069534 -0.10904375 -0.07248881
0.006847087 -0.073102646 -0.11521873 -0.056194603 -0.06049119 -0.077061184 -0.035932306 -0.11742238
-0.09099202 -0.059564747 -0.029755699 -0.019581653 -0.028957542 -0.042121176 -0.013142467 -0.009119662
0.018251859 0.032151125 -0.0523965 -0.027499756 0.060068607 -0.060064033 0.007021058 0.02429673
-0.054032657 -0.0447495 -0.07108575 -0.051367845 -0.118956424 -0.10006216 -0.04082556 -0.16361715
0.010689976 0.023005895 -0.07531028 0.06092773 -0.009495636 0.004260491 -0.005393298 0.019379754

fc3.weight f4 [4, 300]
00000000: f898 813e 1db2 e43e a84b 9abe 24a9 dfbe
00000010: e46d e9be 134c c23e 9496 d03e ef1a 84bd
00000020: 8112 883e 4792 0a3f 7703 f2be 7c58 5b3e
00000030: 10fc bd3d ce8e 9d3c 7597 a4be b84f 3dbf
00000040: e0ef 883c 1ed2 b6be 11bb 25bf 5496 ee3e
00000050: fd43 13bd 8c0c 0b3f c668 cabd 67dd 1c3e
00000060: 7732 44bf 4b07 8cbe 6398 623f 13aa 2dbf
00000070: 21e1 fa3e ca1c 61bd e760 25bf 8bba 50bf
00000080: 734c 37bf 8639 35be cb52 e63e dfc7 b0bd
00000090: 23c9 ee3e 7904 edbe def2 23bf f620 3c3e
000000a0: 5670 7d3f 7f91 24bf 9a41 1f3f 7dec 453e
000000b0: 4dd5 253f b752 ae3c 1c50 113e 2e0c 023f
000000c0: 4a6a 0f3f a469 843f 7443 71be 0c83 6c3f
000000d0: 0d8f b43e 3b2c 4abf f737 6b3e 4016 14be
000000e0: dded 093f 0cba 46bd 253f 193f 96d6 78be
000000f0: bcab 233e 6dfa b0bd aa1d 8b3e 232f cdbe
00000100: e340 bb3a e3dc 0dbf 9505 c1bc 49e0 6ebe
00000110: 5d66 f8bb 8c3c f9bc c56f 933d 90f7 7a3f
00000120: 9b38 853e 7818 923f 916a 00bf a3e0 4b3f
00000130: 5613 973e 085a 1c3e c9b5 803f a3f1 43be
00000140: b39a cb3e 343e 58bf b91a 56bf beeb 193e
00000150: d956 e2be 1a91 e73e 3514 9fbe 04a6 033f
00000160: 1944 bbbe 29f0 1a3f 441a 513f fadb 973d
00000170: 16df db3d bf8a 76bd 2e6f 8c3e f386 853e
00000180: 3414 cf3e 0e09 6b3e 4f78 1f3e 840e 223c
00000190: e0e0 093d 4989 0a3f 761a 683e 3070 903d
000001a0: def8 213f 1012 223f a051 27bf a0bd 273e
000001b0: 8b6b 753f 58d4 c4bd 6f7c 7abe fdca a33e
000001c0: 2420 e7bd bf6e 393e 9a3f 2c3f 1ca5 6d3e
000001d0: ef81 263f 1f8d 443e 8b35 633e 850b e7bd
000001e0: d199 21bd 903f afbd 41b5 80bf 3857 fbbe
000001f0: 5923 713f cd60 053f 77ef 4cbe 31a3 eebd
00000200: eac1 c4be 1603 69bf ba46 863e ed20 86bf
00000210: ab36 723d fd06 e23e a638 aa3d 0d6f 633f
00000220: c02c 29bf e9cd 9c3f 3eed 01bf 1e15 99be
00000230: eca0 243f b6fe efbe 8faa 28bf ed56 1cbe
00000240: 9066 3ebc cd12 ea3e b9d0 dbbe a7af 5ebf
00000250: 30a5 efbc f865 883e 9015 413e afed 61be
00000260: b05f c53e 0a52 e43d dee6 0ebf 7593 093f
00000270: 7be1 91be e78c 3fbd 8f17 65bd ce9a 8e3d
00000280: babc c63e 121b cc3e f5f8 b4be ceb2 193f
00000290: 8538 323f 9c3e c73d a7a4 33be 3bbd 47be
000002a0: 5ea1 27be bec9 56bf a5f3 3c3f 3f1e 10bf
000002b0: 0a41 62be 115e e33e ad83 9b3e 76b3 8f3e
000002c0: 5cf1 533f bac2 983f 41e6 0e3f 5b4e 9d3e
000002d0: 8f76 0d3d a0ea c13d 588e 18bf d54a 27bf
000002e0: 8b87 29bf 596f b63d b4f9 933e d895 c43d
000002f0: 4997 b2bd c40a cebe 5503 16bf dd67 683f
00000300: dbd8 32bf d34b 403f 8586 0f3f bbb2 be3e
00000310: ded4 92bd 5326 e8be 8b68 3bbf 9628 3e3c
00000320: d495 b13e dc06 79bf d61d 5f3e 39e4 6bbe
00000330: 5343 d4bd a28e 3fbe 030e a43f b25b 4ebe
00000340: db6a 733e 416e 85be fc29 1a3f 073c 6e3e
00000350: 43da fdbd 36ed d8be 36fd 06bf a5f3 43be
00000360: 3ea5 f0be c191 873d 0ca7 5b3e b6c9 c4be
00000370: e78d c9be 9905 54bf cfd5 173e aa75 953e
00000380: a677 d4be 466d d43e 935b 32bf 4c2c 443f
00000390: 0b66 9ebe 6eda 1c3f 4321 b9be 06f7 803e
000003a0: d8e5 44bf 7f6d 5b3c edce 543d 04b4 bb3c
000003b0: d425 283f 0754 db3e 1852 443f 284a c1be
000003c0: e13f 503f 54cb e73d 8857 aebe b5cf f43d
000003d0: dbb6 3f3f b2e1 07bf aaab 1abf d815 30bf
000003e0: 3a31 0abf 294f 963d f028 2f3f 44ce 02bf
000003f0: f55d e1be fc06 853e bca1 1bbf 1bd7 dfbd
0.25312018 0.4466714 -0.30135846 -0.43683732 -0.45591652 0.37948665 0.40739882 -0.0645045
0.26576617 0.5412945 -0.47268268 0.21420473 0.09276593 0.019233134 -0.32146803 -0.73949766
0.016715944 -0.35707182 -0.64738566 0.46599066 -0.03595351 0.5431602 -0.09883265 0.15318833
-0.76639503 -0.27349314 0.88513774 -0.6783764 0.48999885 -0.054959096 -0.64600986 -0.8153464
-0.7160103 -0.17697725 0.4498504 -0.086318724 0.4663783 -0.46292475 -0.6404246 0.18371949
0.98999536 -0.6428451 0.62209475 0.19328494 0.64778596 0.021279676 0.14190716 0.50799835
0.5602156 1.0344739 -0.23560888 0.9238746 0.3526539 -0.7897374 0.22970568 -0.14461613
0.53878576 -0.048517272 0.59861976 -0.24300608 0.1598348 -0.08641515 0.2717107 -0.40075025
0.0014286306 -0.5541517 -0.023562232 -0.23327745 -0.007580562 -0.030424379 0.07199053 0.98034
0.2601975 1.1413717 -0.5016261 0.79639643 0.2950694 0.15268719 1.0055476 -0.19135146
0.39766464 -0.84469914 -0.83634526 0.15031335 -0.44206885 0.4522789 -0.31070104 0.51425195
-0.36575392 0.60522705 0.81680703 0.07415004 0.1073591 -0.060190912 0.27428573 0.2607952
0.404451 0.22952673 0.15573238 0.009891156 0.033661723 0.5411573 0.22666344 0.07052648
0.63270366 0.6330881 -0.65358925 0.1638093 0.9586722 -0.09610814 -0.2446153 0.31990805
-0.11285427 0.18108653 0.6728455 0.23207515 0.6504201 0.19194458 0.22188394 -0.11281494
-0.03945333 -0.085570455 -1.0055314 -0.4908998 0.9419456 0.5210083 -0.20013224 -0.1165222
-0.38429195 -0.91020334 0.26225835 -1.0478798 0.059134167 0.44145957 0.08311586 0.88841325
-0.6608391 1.2250339 -0.5075263 -0.29898924 0.6430805 -0.46874017 -0.6588525 -0.15267535
-0.0116211325 0.4571747 -0.4293268 -0.86986774 -0.029253572 0.26640296 0.18855882 -0.22063325
0.38549566 0.1114846 -0.55821025 0.53740627 -0.2849234 -0.046765234 -0.05593067 0.069631204
0.38815862 0.39864403 -0.3534619 0.6003846 0.6961749 0.09728739 -0.17543279 -0.1950578
-0.1637015 -0.83901584 0.7380927 -0.5629615 -0.22095123 0.44407704 0.30373898 0.28066605
0.8279016 1.1934426 0.5582009 0.30723843 0.034536894 0.09468579 -0.595922 -0.6534856
-0.6622245 0.08907957 0.28901446 0.09598893 -0.087202616 -0.4024259 -0.58598834 0.9078348
-0.69862145 0.751157 0.56064636 0.37245736 -0.071695074 -0.4534174 -0.73206395 0.011606356
0.34684622 -0.9727609 0.21788725 -0.23036279 -0.103644036 -0.18706754 1.2816776 -0.20152166
0.23771231 -0.2606068 0.60220313 0.23265086 -0.12395146 -0.42368478 -0.5273012 -0.19135912
-0.4700107 0.06619597 0.21450442 -0.38435143 -0.39366075 -0.8282104 0.14827655 0.29191333
-0.41497535 0.4148962 -0.6967098 0.7663009 -0.30937228 0.612708 -0.3615819 0.25188464
-0.76913214 0.013392805 0.051955152 0.022912987 0.6568272 0.42837545 0.76687765 -0.3775189
0.8134747 0.11318079 -0.34051156 0.119536795 0.7488839 -0.5307876 -0.6041819 -0.6878333
-0.53981364 0.07339317 0.6842184 -0.51095986 -0.44016996 0.2598189 -0.6079366 -0.109297

fc3.bias f4 [4]
00000000: 43e2 f13c 73b1 0dbe 2148 383b 68fc 9c3d
0.029526835 -0.13837223 0.0028119164 0.0766533
