checkpoint_critic.pth (torch_old, 542674 bytes, 5 tensors)

fcs1.weight f4 [400, 33]
0	0x3d0192b2	0.03163404
1	0x3d8bc72a	0.06825097
2	0x3dbe5eb8	0.0929541
3	0xbb36ddea	-0.0027903267
4	0xbbde4622	-0.006783263
5	0x3d0698a8	0.032860428
6	0xbc18f969	-0.009336808
7	0x3c214044	0.009841982
8	0x3c3b407b	0.011428948
9	0x3ca5cefe	0.020240303
10	0x3ba55272	0.0050452286
11	0xbcb018c0	-0.021496177
12	0xbbe3b028	-0.0069484897
13	0xbdcf412d	-0.10119853
14	0xbd3ddf5b	-0.046355586
15	0xbdc3d85f	-0.09562754
16	0x3db8ebc3	0.09029343
17	0xbd160a4c	-0.036630914
18	0xbc57eb55	-0.013178666
19	0x3d094d2a	0.033520855
20	0x3c3744f9	0.011185878
21	0x3cdb52e6	0.026772927
22	0x3d798aa8	0.06092325
23	0xbc834c4a	-0.016027588
24	0xbd1545a9	-0.036443386
25	0xbd5d0824	-0.05396284
26	0x3cb66d98	0.022269055
27	0x3dac8548	0.08423859
28	0x3d7a64e8	0.061131388
29	0xbd244116	-0.040101133
30	0xbda9ccbd	-0.08291004
31	0xbc647be8	-0.013945557
32	0x3e2137b4	0.15743905
33	0xbd2c8098	-0.042114824
34	0xbd9c14e2	-0.076211706
35	0x3c8c6594	0.01713828
36	0x3c8f552e	0.017496672
37	0xbdd18baa	-0.10231717
38	0xbd30f68e	-0.043203883
39	0x3b7250ee	0.0036974507
40	0x3d0eacbc	0.0348327
41	0x3c107be3	0.008818599
42	0x3d4ceaed	0.05002873
43	0xb906b0de	-0.00012845124
44	0xbc274c99	-0.010211133
45	0x3bcd067c	0.0062568765
46	0x3cab62ac	0.020921074
47	0x3ca2f083	0.019890076
48	0xbcb5fa8a	-0.022214193
49	0x3d20aab5	0.0392253
50	0x3bfa9779	0.0076474515
51	0xbd0f1516	-0.03493222
52	0x3e1202de	0.14258906
53	0xbd04297b	-0.03226612
54	0xbce56667	-0.02800293
55	0xbc243f1e	-0.010024814
56	0x3c9c094a	0.019047398
57	0x3ca6aaab	0.020345053
58	0x3d585abf	0.052820917
59	0x3d42f333	0.047595214
60	0x3c7cfbe0	0.015440911
61	0x3d4e1678	0.050314397
62	0xbcf336ea	-0.029689271
63	0x3ce0df43	0.02745021
64	0x3b6df3d0	0.0036308654
65	0xbc836898	-0.016041085
66	0x3b8cf549	0.004301701
67	0x3dbe0f33	0.09280243
68	0x3d96f305	0.07370571
69	0x3d9f8302	0.0778866
70	0x3e1e9bfb	0.1548919
71	0x3ca23213	0.019799268
72	0xbd96e28c	-0.07367429
73	0x3beaaa40	0.0071614087
74	0xbc650955	-0.013979276
75	0x3ca63067	0.020286752
76	0x3c341217	0.010990641
77	0x3cda7052	0.026664887
78	0x3d650c10	0.055919707
79	0x3d00d2c2	0.031450994
80	0x3ce509ae	0.027958717
81	0x3ccf480a	0.025302906
82	0x3d5f0418	0.054447263
83	0x3dccc870	0.09999168
84	0xbe88ad7c	-0.26694858
85	0xbe5e7071	-0.2172258
86	0x3d871241	0.065952785
87	0xbd773892	-0.060356684
88	0x3d291a41	0.041284803
89	0x3d6e3318	0.058154196
90	0x3cdddc72	0.027082656
91	0x3d692421	0.05691922
92	0xbd3ed9e2	-0.046594508
93	0x3d0f82e2	0.03503693
94	0xbd95b152	-0.07309212
95	0x3cc24f4e	0.023719456
96	0xbd87fb4d	-0.06639729
97	0xbd3227b3	-0.04349489
98	0xbd96f75e	-0.073714
99	0xbdaa37a4	-0.08311394
100	0x3e164970	0.14676452
101	0xbd447316	-0.047961317
102	0xbdb34cfb	-0.08754917
103	0xbd489f78	-0.048980206
104	0xbd8fa639	-0.07014126
105	0xbc675143	-0.014118495
106	0xbce0b28f	-0.027428893
107	0xb8b87ac9	-8.796674e-05
108	0x3d856668	0.06513673
109	0xbd376a83	-0.044779312
110	0x3d5c5380	0.05379057
111	0xbc24b9ad	-0.010054034
112	0x3d9374c0	0.07200003
113	0x3caa1c2b	0.020765385
114	0x3d76aa66	0.0602211
115	0x3e345c20	0.17613268
116	0x3e0906f2	0.13381556
117	0xbdb42fdb	-0.0879819
118	0x3bba4df5	0.0056855627
119	0x3da8fe62	0.08251645
120	0x3d4bc5c1	0.04974914
121	0x3d2ba12f	0.041901764
122	0x3d1acd21	0.037793282
123	0xbcd67841	-0.026180388
124	0x3d5999a4	0.05312504
125	0xbd286966	-0.04111614
126	0x3dcf7b37	0.10130923
127	0xbd17e8fd	-0.03708743
128	0x3d035d73	0.032071542
129	0xbdaa3f52	-0.08312859
130	0x3c06c460	0.00822553
131	0xbe680a73	-0.22660236
132	0x3d7eec5f	0.06223714
133	0x3d58e636	0.05295392
134	0xbdd3d8de	-0.103440985
135	0xbd6248ab	-0.055245083
136	0xbc6fbd35	-0.014632513
137	0xbcdd1261	-0.026986303
138	0xbda92a71	-0.08260048
139	0x3ad463f6	0.0016204107
140	0xbd8cfb80	-0.06883907
141	0x3cfd918b	0.03095319
142	0x3bb8cc3f	0.0056395824
143	0xbc269c66	-0.010169124
144	0xbba2953a	-0.004961637
145	0xbda53dd0	-0.080684304
146	0xbd969c5c	-0.07354042
147	0x3e21b0c3	0.15790085
148	0x3daab345	0.08334974
149	0xbcfafba7	-0.030637575
150	0x3d5e5070	0.05427593
151	0xb9b10e23	-0.00033770603
152	0x39ecea08	0.00045187795
153	0xbcf88f8a	-0.030341882
154	0xbd41f09b	-0.0473486
155	0x3b292aca	0.0025812858
156	0xbc80a4f4	-0.015703656
157	0x3d034e47	0.032057073
158	0x3d779f8d	0.060454894
159	0x3d88a34c	0.066717714
160	0xbdc012bf	-0.093785755
161	0xbd3428ca	-0.043984212
162	0xbd00c321	-0.03143609
163	0xbb4ab920	-0.0030933097
164	0x3e455cb0	0.19273639
165	0xbe556d93	-0.2084258
166	0x3da43109	0.08017165
167	0xbc6d7d12	-0.014495151
168	0x3d6bbeb4	0.057554916
169	0xbd404e33	-0.046949577
170	0x3cb27845	0.021785865
171	0x3b9a3fe7	0.004707325
172	0x3d0e3289	0.034716163
173	0x3c556179	0.013023728
174	0xbb9f9427	-0.004869956
175	0xbc152671	-0.009103403
176	0x3d106ba4	0.035258904
177	0x3b52956a	0.0032132515
178	0xbc068b90	-0.008211985
179	0x3c9f3c53	0.019437945
180	0x3c778aa3	0.015108737
181	0x3dfcb95b	0.12340041
182	0xbd84358c	-0.06455526
183	0x3de25316	0.11051004
184	0xbe088eda	-0.13335744
185	0x3c398806	0.011323934
186	0x3c50569a	0.01271596
187	0x3ad0ad4a	0.0015920785
188	0x3bd5e44f	0.0065274606
189	0x3b4df6ed	0.0031427697
190	0x39486388	0.00019110565
191	0x3d5b9e52	0.053617783
192	0xbcc58efb	-0.02411603
193	0xbc27a953	-0.010233241
194	0xbd261a8e	-0.04055267
195	0xbc4a5873	-0.0123501895
196	0xbc1e71b8	-0.009670667
197	0xbdac0516	-0.083994076
198	0xbc050698	-0.008119248
199	0xbc6c9d28	-0.014441766
200	0x3d92d453	0.07169404
201	0xbdd1da8e	-0.10246764
202	0xbd8a3c2a	-0.06749757
203	0x3e197ab5	0.14988215
204	0xbb371a3a	-0.0027939216
205	0x3c9588eb	0.018253764
206	0xbd9f0c5c	-0.07766029
207	0x3ccea121	0.025223317
208	0x3d068499	0.0328413
209	0xbd693c73	-0.056942414
210	0xbd3552a0	-0.04426825
211	0x3dc4f5ad	0.096171714
212	0x3d682f23	0.056685578
213	0xbd8d4816	-0.06898515
214	0xbbf3eb89	-0.0074438495
215	0x3db7d495	0.08976094
216	0x3c346b28	0.011011876
217	0x3ddb4a0c	0.10707483
218	0x3c09a793	0.008401769
219	0xbc2f1204	-0.010685448
220	0xbcab5033	-0.020912265
221	0x3b59c842	0.0033230935
222	0x3d512db6	0.051068984
223	0x3c072e57	0.008250794
224	0xbdbd6889	-0.09248454
225	0x3d984e09	0.07436759
226	0x3d8e15c1	0.06937743
227	0xbd3cc3d2	-0.046085186
228	0xbc0acc8a	-0.0084716175
229	0xbd2e018b	-0.04248194
230	0xbe0c4740	-0.13699055
231	0xbc3b38d9	-0.011427128
232	0x3e28c775	0.16482337
233	0xbdb770e8	-0.08957082
234	0xbdc1c517	-0.0946142
235	0x3d21945f	0.03944814
236	0x3c8485f4	0.016177155
237	0xbd94a710	-0.07258427
238	0x3cd9850d	0.026552701
239	0xbd66a424	-0.05630888
240	0xbb66a0ec	-0.0035191132
241	0x3d433ded	0.04766648
242	0x3d01d848	0.031700402
243	0xbb8fd106	-0.004388931
244	0xbddd745f	-0.10813212
245	0x3d2ab7ed	0.04167931
246	0x3cc3790c	0.02386143
247	0xbd025f77	-0.031829324
248	0x3d742c53	0.059612583
249	0xbb189bdf	-0.0023286266
250	0xbd25a2c4	-0.04043843
251	0xbc7a2a66	-0.015268898
252	0x3d210ce1	0.039318923
253	0xbcceca2f	-0.025242893
254	0x3cef7a6c	0.02923318
255	0xbc21e75f	-0.009881823

fcs1.bias f4 [400]
0	0xbcfad4f3	-0.03061912
1	0x3e399d74	0.1812647
2	0x3d41aa22	0.047281392
3	0xbd2c9e53	-0.042143177
4	0xbe2ba158	-0.16760767
5	0x3dd082f8	0.1018123
6	0xbd454e5a	-0.048170425
7	0xbd2eeb4e	-0.042704873
8	0xbdeb11d1	-0.114780076
9	0xbe05e46c	-0.13075417
10	0xbe43765c	-0.1908812
11	0xbe0f7616	-0.1400989
12	0xbe4da2d6	-0.20081648
13	0xbe51abce	-0.20475695
14	0x3e07e523	0.13271002
15	0x3d8649c4	0.065570384
16	0xbdf534b7	-0.11972945
17	0xbe3bb5e3	-0.18331103
18	0xbe252fad	-0.16131468
19	0xbe8d10c4	-0.27551854
20	0xbdf4721b	-0.119358264
21	0x3ccb6e89	0.02483298
22	0xbdf96244	-0.12176946
23	0xbdcc3143	-0.099703334
24	0x3b214d32	0.0024612662
25	0x3e3bdbec	0.18345612
26	0x3e6aa334	0.2291382
27	0xbe036cd6	-0.12834486
28	0xbe5379a4	-0.20651871
29	0x3b4612d2	0.003022362
30	0x3d6f8daa	0.05848471
31	0x3d974198	0.07385558
32	0xbe4bfb93	-0.19920187
33	0xbe02bd72	-0.1276758
34	0x3dba94dc	0.09110424
35	0x3d9863c3	0.07440903
36	0xbe15d00a	-0.14630142
37	0xbdab390e	-0.08360492
38	0xbd125966	-0.03572979
39	0xbe006b42	-0.12540916
40	0xbe32a029	-0.17443909
41	0x3d9069f1	0.07051457
42	0xbc33bce5	-0.010970329
43	0x3e3810dd	0.17975183
44	0xbdbdaf9e	-0.09262012
45	0xbd6a5438	-0.057209224
46	0xbd9467c3	-0.072463535
47	0x3ca22ace	0.019795801
48	0xbd371e2e	-0.044706516
49	0xbe164ccb	-0.14677732
50	0x3dac35c2	0.08408691
51	0xbba1accb	-0.0049339286
52	0x3e504651	0.20339324
53	0xbe2bcacc	-0.1677658
54	0x3dc43cef	0.09581935
55	0x3e09e02e	0.13464424
56	0xbe2846f0	-0.1643331
57	0xbe6755c7	-0.22591315
58	0xbd40ec2f	-0.047100242
59	0x3e0dd163	0.13849406
60	0xbe55d554	-0.2088216
61	0x3cb88108	0.022522464
62	0x3d182ec0	0.03715396
63	0x3dfb1ff3	0.12261953
64	0x3d9183e8	0.07105237
65	0xbd84c75c	-0.06483337
66	0xbe0f9a36	-0.1402367
67	0xbe325afb	-0.17417519
68	0x3dce934a	0.10086687
69	0xbe1a5aa5	-0.1507364
70	0xbe1cb5be	-0.15303704
71	0xbe387bf8	-0.1801604
72	0xbe76000b	-0.24023454
73	0x3e2a152e	0.16609642
74	0x3e1168a8	0.1420008
75	0x3a9f1fdc	0.0012140232
76	0x3e116c55	0.14201482
77	0x3e1c7ef9	0.15282811
78	0x3dfba15a	0.12286635
79	0xbe5a78db	-0.21335165
80	0x3dd4df1b	0.103941165
81	0xbd9a8262	-0.075444
82	0x3e210e86	0.15728197
83	0x3db32057	0.08746403
84	0xbd6bee31	-0.057600204
85	0xbdd24a66	-0.102680966
86	0x3df9c0fe	0.121950135
87	0xbe785892	-0.24252537
88	0xbe07625d	-0.13221116
89	0x3c88bb33	0.016690826
90	0xbd407ed1	-0.04699594
91	0xbe37d3f2	-0.17951944
92	0xbd700430	-0.058597744
93	0xbd836a46	-0.064167544
94	0xbdcf16e1	-0.10111786
95	0xbe63310b	-0.22186677
96	0x3cd9739d	0.026544387
97	0x3d8f350e	0.06992541
98	0xbdfe6dcd	-0.124232866
99	0x3e34ac31	0.17643811
100	0xbcd59363	-0.026071256
101	0x3e083d84	0.13304716
102	0xbd98b5d7	-0.07456558
103	0xbd1cdcb3	-0.038296413
104	0x3e2ae30a	0.16688171
105	0xbcfa8069	-0.030578809
106	0x3cb9cc74	0.022680499
107	0xbcdc5899	-0.026897715
108	0xbe56455b	-0.20924895
109	0x3dbc980b	0.092086874
110	0xbe345427	-0.17610227
111	0xbe8863e0	-0.266387
112	0xbe054c7d	-0.13017459
113	0xbe89aaf4	-0.2688824
114	0xbe0dc905	-0.13846214
115	0xbe2253ed	-0.15852328
116	0xbe8094fc	-0.25113666
117	0x3d8a2053	0.067444466
118	0x3b1ee98e	0.0024248096
119	0x3da98dbf	0.08278989
120	0x3e1b9ac9	0.15195765
121	0xbe20af63	-0.15691905
122	0xbd210307	-0.039309528
123	0x3c5b03f2	0.01336764
124	0xbcf0cb1e	-0.029393729
125	0xbd396c3e	-0.045269243
126	0xbc94cf78	-0.018165335
127	0x3e8659cd	0.26240388
128	0x3d67c8cf	0.05658799
129	0xbe938e18	-0.28819346
130	0x3dc65628	0.09684402
131	0xbe6bdedc	-0.23034233
132	0xbc73b352	-0.014874296
133	0xbe8c8a0a	-0.27449065
134	0x3d230b8a	0.039805926
135	0x3d5d00d7	0.05395588
136	0xbda7fcae	-0.08202492
137	0x3dd99e7b	0.10625931
138	0xbd54416e	-0.05182021
139	0xbe50257b	-0.20326798
140	0x3d3e98e2	0.04653252
141	0xbe2608fc	-0.16214365
142	0xbdd6ab42	-0.104818836
143	0x3dc8c8cb	0.09803923
144	0xbd3706bd	-0.04468416
145	0xbdfcf844	-0.123520404
146	0xbe1ea19c	-0.15491337
147	0xbdcbba06	-0.099475905
148	0x3c91ce05	0.017798433
149	0xbda9873e	-0.082777485
150	0xbdc24a8f	-0.09486877
151	0x3e42b9c8	0.19016182
152	0xbe867f12	-0.26268822
153	0xbdb209e4	-0.08693293
154	0xbd663b1a	-0.056208707
155	0xbe6e14db	-0.23250143
156	0xbe3932b5	-0.1808575
157	0x3d2009b1	0.039071742
158	0xbe3897ca	-0.18026653
159	0x3e5973c3	0.21235566
160	0xbe7c9c90	-0.24669099
161	0xbd9e025f	-0.07715296
162	0xbdd5f4eb	-0.10447105
163	0xbe1b4481	-0.15162851
164	0x3de2c4db	0.110727035
165	0xbd2d25e0	-0.04227245
166	0xbe2a75b1	-0.16646458
167	0x3d2c85e9	0.042119894
168	0x3cbc7443	0.023004657
169	0xbdb72526	-0.089426324
170	0xbe680867	-0.22659455
171	0xbe2fcbc1	-0.1716757
172	0xbda10fd8	-0.0786435
173	0xbda2cbec	-0.07949051
174	0x3d7dfe6c	0.062010214
175	0xbd7aad85	-0.061200637
176	0x3cae1f7e	0.021255251
177	0x3cab683d	0.020923728
178	0x3da31638	0.07963222
179	0x3e4cef24	0.200131
180	0x3d55411d	0.05206405
181	0xbe86610a	-0.2624591
182	0x3d9079c0	0.07054472
183	0xbd103798	-0.03520927
184	0x3ca4a771	0.020099374
185	0xbd825f80	-0.063658714
186	0xbe656b88	-0.22404301
187	0xbe09ac38	-0.13444602
188	0xbe818c4b	-0.25302348
189	0xbe69b6b7	-0.22823606
190	0xbe4876f7	-0.19576631
191	0xbcb38935	-0.021916011
192	0xbdbc3bf6	-0.09191124
193	0xbd877921	-0.066149004
194	0xbe88e22a	-0.2673505
195	0x3d078aa8	0.033091217
196	0xbe47d41c	-0.19514507
197	0xbcacb85d	-0.021084005
198	0xbe500f95	-0.20318444
199	0x3c43735e	0.011929361
200	0xbe2ef84c	-0.17086905
201	0x3da28514	0.07935539
202	0xbe317215	-0.17328675
203	0x3d0ab137	0.03386041
204	0x3bead5fb	0.0071666217
205	0xbd145f09	-0.036223445
206	0xbe458e88	-0.19292653
207	0x3d085521	0.03328431
208	0xbe015d84	-0.1263333
209	0x3d3c5303	0.045977604
210	0x3e44f608	0.19234478
211	0xbe285436	-0.16438374
212	0xbbf081e3	-0.0073397025
213	0xbdbf0930	-0.09327924
214	0xbc1b3bf4	-0.009474743
215	0x3d3abcd7	0.045590248
216	0x3e532a4c	0.20621604
217	0xbde68c10	-0.112571836
218	0x3b686400	0.0035459995
219	0x3e227eff	0.15868758
220	0xbdca058a	-0.09864338
221	0x3d981892	0.074265614
222	0xbde202b4	-0.11035672
223	0xbe2a547e	-0.16633794
224	0x3cfa47af	0.03055176
225	0xbe34dd58	-0.17662561
226	0xbe77a08c	-0.24182338
227	0xbddc23c9	-0.10749013
228	0x3d406b87	0.046977546
229	0x3dd302b7	0.10303252
230	0xbde69d66	-0.1126049
231	0x3e6976bb	0.22799198
232	0xbe46b5de	-0.19405314
233	0xbe46a585	-0.19399078
234	0x3d436282	0.047701366
235	0x3d45d6a1	0.04830039
236	0x3c161bd0	0.009161904
237	0x3e135aa4	0.14390045
238	0xbd638593	-0.05554731
239	0xbdb4f2b2	-0.08835353
240	0xbe5a97b6	-0.21346936
241	0xbe40e6f9	-0.18838109
242	0x3dca7c44	0.09886983
243	0xbe116163	-0.14197306
244	0xbd4223bf	-0.04739737
245	0xbe37022d	-0.17871924
246	0xbd627e2f	-0.05529612
247	0xbdf262f3	-0.11835279
248	0xbdb92c65	-0.09041671
249	0x3e548007	0.20751964
250	0xbe44d05b	-0.19220106
251	0xbe0ea5dd	-0.1393046
252	0xbe04113e	-0.12897202
253	0xbd30efca	-0.04319743
254	0xbca53891	-0.020168575
255	0x3d8da8a0	0.06916928

fc2.weight f4 [300, 404]
0	0xbd85292b	-0.06501993
1	0xbc245231	-0.010029362
2	0xbdb63fc3	-0.0889888
3	0x3e0342f1	0.12818505
4	0xbe41664a	-0.18886676
5	0xbd9c3384	-0.07627013
6	0xbd1a2997	-0.03763732
7	0xbdda0678	-0.10645765
8	0xbdc3c93f	-0.09559869
9	0xbdd4e090	-0.103943944
10	0xbc7fcfec	-0.015613537
11	0x3ac92357	0.0015345615
12	0xbddb5277	-0.10709088
13	0xbe253a39	-0.16135491
14	0xbe389f9d	-0.18029638
15	0x3c150138	0.009094529
16	0xbd09e6f0	-0.033667505
17	0xbe5da1d8	-0.2164377
18	0xbccf4465	-0.025301168
19	0xbe099a45	-0.13437755
20	0x3af4f96e	0.0018690058
21	0xbc40a6c4	-0.01175851
22	0x3cdf0ca0	0.0272277
23	0xbdea440c	-0.1143876
24	0xbe240ae9	-0.16019787
25	0x3b041bb2	0.002015811
26	0x3d2d9e7f	0.04238748
27	0x3d2f70c0	0.042832136
28	0xbdaa62dd	-0.08319638
29	0xbdb0b5f5	-0.086284555
30	0x3cb3599c	0.021893315
31	0xbe35009d	-0.17676015
32	0xbe0cf9e9	-0.13767208
33	0xbe4ee5a6	-0.20204791
34	0xbcc3843f	-0.02386677
35	0xbc84cfc6	-0.016212355
36	0x3b3f6b82	0.0029208367
37	0xbc443b38	-0.0119770095
38	0xbe07ddba	-0.13268176
39	0x3c947fbe	0.018127318
40	0xbc9856c4	-0.01859606
41	0xbced9f47	-0.029006613
42	0x3ddb2cde	0.10701917
43	0xbe02c046	-0.12768659
44	0xbd9b2101	-0.07574654
45	0x3c68a444	0.01419932
46	0xbd520d87	-0.051282432
47	0x3dbc22ad	0.091863014
48	0xbda80095	-0.08203236
49	0xbdb1bd95	-0.08678738
50	0xbc3ddb65	-0.011587952
51	0xbda5ec7f	-0.08101749
52	0x3b995606	0.0046794442
53	0xbda62a04	-0.081134826
54	0xbe461873	-0.19345264
55	0xbcfb9143	-0.030708915
56	0x3d60e0f8	0.054902047
57	0xbc831380	-0.01600051
58	0x3a78c5f3	0.0009489946
59	0xbd20169f	-0.039084073
60	0x3c41bf3d	0.01182538
61	0xbd48cf02	-0.049025543
62	0xbe595a85	-0.21225937
63	0xbe27bb64	-0.16380078
64	0xbd08d6b6	-0.03340789
65	0xbd0a34bf	-0.03374171
66	0xbdaafc15	-0.08348862
67	0x3c8e4124	0.017365046
68	0xbcbdd9a3	-0.023175066
69	0xbdc456bb	-0.09586855
70	0xbe3595bd	-0.17732902
71	0xbd15aaed	-0.03653996
72	0xbdafb16e	-0.08578764
73	0xbc7e3dd4	-0.015517671
74	0x3c8ae412	0.016954456
75	0x3c9f2aa4	0.019429512
76	0xbda7c2c1	-0.08191443
77	0xbcbae796	-0.022815507
78	0x3ba26c90	0.0049567893
79	0xbe2a0aa4	-0.16605622
80	0x3d1df88d	0.038567115
81	0xbb292f03	-0.0025815375
82	0xbdeaf4cf	-0.11472475
83	0xbd931474	-0.071816355
84	0xbcd6902f	-0.026191799
85	0xbeb8f0f3	-0.3612133
86	0x3db971a9	0.09054882
87	0xbc97058d	-0.018435264
88	0xbce67d60	-0.028135955
89	0x3db0adc6	0.08626895
90	0xbe00cf1d	-0.12579007
91	0x3cb6eb70	0.022329062
92	0xbc82e2c9	-0.01597728
93	0x3caa7a6b	0.020810327
94	0x3ce0cdf4	0.027441956
95	0xbc2ef951	-0.010679559
96	0x3b6063c1	0.0034239145
97	0xbc140543	-0.009034458
98	0xbc9bd64a	-0.01902308
99	0x3c7e1c4c	0.015509676
100	0xbdf3660a	-0.11884697
101	0xbdbb12c6	-0.0913444
102	0xbd350780	-0.044196606
103	0x3c868779	0.01642202
104	0xbc99d431	-0.018777939
105	0x3c845e07	0.016158117
106	0xbd94aa7d	-0.072590806
107	0xbda2dd03	-0.07952311
108	0x3cd9eafb	0.026601305
109	0xbe738a30	-0.23783183
110	0xbe2df956	-0.16989645
111	0xbdf851f0	-0.12125003
112	0xbce58ddb	-0.028021744
113	0xbbf2185a	-0.007388157
114	0xbe8bbbf1	-0.27291825
115	0xbd4cce24	-0.05000128
116	0xbd688cb7	-0.05677482
117	0xbe43d5cf	-0.1912453
118	0x3cf41bc6	0.0297984
119	0xbd76c144	-0.060242906
120	0x3d916c9f	0.07100796
121	0x3cd3d926	0.02586038
122	0xbcc4cc14	-0.024023093
123	0xbd6f151a	-0.058369733
124	0xbe60a45c	-0.21937698
125	0xbdb2a323	-0.08722522
126	0xbcb4ec25	-0.022085259
127	0xbcc3aa1f	-0.023884831
128	0xbcad8828	-0.021183088
129	0x3d915865	0.07096938
130	0xbdf25ed8	-0.11834496
131	0x3c7b047c	0.015320893
132	0xbc916c63	-0.017751878
133	0xbc12da39	-0.008963161
134	0xbacb9988	-0.0015533427
135	0xbde8b85f	-0.11363291
136	0xbe494b2e	-0.19657585
137	0xbcad4687	-0.021151794
138	0x3c52651c	0.012841489
139	0xbd778030	-0.060424984
140	0xbdf0c482	-0.11756231
141	0xbd40fc3d	-0.047115553
142	0xbc980158	-0.018555328
143	0x3c8de8d9	0.017322944
144	0xbe1d343c	-0.15351957
145	0xbe04ac32	-0.12956312
146	0x3beca38a	0.007221644
147	0x3d4ef588	0.050527126
148	0xbcbb6159	-0.022873567
149	0x3bebec3e	0.007199793
150	0x3d2a5940	0.04158902
151	0x3c17394e	0.009229971
152	0x3d33b91d	0.04387771
153	0xbcd21bae	-0.025647964
154	0x3d1dec62	0.03855551
155	0xbd745ed5	-0.05966075
156	0xbcd8b2cf	-0.02645245
157	0xbe05cfab	-0.130675
158	0x3bbcd26a	0.005762388
159	0xbd9dd7ce	-0.07707177
160	0x3cabf7ec	0.020992242
161	0xbe1c13fa	-0.15241995
162	0xbd692d63	-0.05692805
163	0xbdafcacf	-0.085836045
164	0x3c932a41	0.017964484
165	0xbe51fff1	-0.2050779
166	0x3d5c5cd8	0.05379948
167	0x3dbf8e46	0.093533084
168	0x3d756c3a	0.059917666
169	0x3d40ec1b	0.047100168
170	0xbe055bf3	-0.13023357
171	0xbd80d3b9	-0.06290383
172	0x3d137389	0.035998855
173	0xbd3962a7	-0.045260098
174	0xbd72b8f1	-0.059258405
175	0x3d8a9eda	0.0676858
176	0xbe289fd6	-0.16467223
177	0xbdbb3507	-0.091409735
178	0xbd46054f	-0.048344906
179	0x3d559980	0.052148342
180	0x3e67a351	0.22620894
181	0x3d054adb	0.03254209
182	0x3c0141d0	0.007889226
183	0xbcdfb9b8	-0.027310237
184	0xbd36d8a5	-0.044640202
185	0xbdc8b837	-0.09800761
186	0xbd729aee	-0.059229784
187	0xbd2f7a6b	-0.042841356
188	0xbe33235b	-0.17493956
189	0xbdcd8e4e	-0.10036908
190	0xb9ab132e	-0.00032629952
191	0x3d6d63ba	0.057956435
192	0x3c9816e3	0.0185656
193	0x3c09bc7d	0.0084067555
194	0x3cfd5c4d	0.030927802
195	0x3d1c1bdb	0.038112503
196	0xbd84899c	-0.064715594
197	0xbd3c02f4	-0.045901254
198	0xbe15e2af	-0.14637254
199	0xbcb02a24	-0.02150447
200	0x3d539fba	0.051666
201	0xbd2f8681	-0.042852882
202	0xbddaa77e	-0.10676478
203	0xbd83f6b8	-0.06443542
204	0x3c5b6ae5	0.013392185
205	0xbdf3a127	-0.11895972
206	0xbda57d83	-0.0808058
207	0xbdc340be	-0.09533833
208	0xbb1c05ca	-0.0023807161
209	0xbc557cf0	-0.013030276
210	0xbd419ca4	-0.047268525
211	0xbd2922f1	-0.04129309
212	0xbd2a1dc8	-0.041532308
213	0xbd4710c1	-0.048599962
214	0x3da38f9c	0.07986376
215	0xbe11e734	-0.14248353
216	0x3caebb43	0.021329528
217	0x3d4e241c	0.050327405
218	0xbe27cdcb	-0.16387098
219	0xbd5c5a8e	-0.053797297
220	0x3b3e415d	0.0029030659
221	0x3ca7dd75	0.020491341
222	0xbda44a3a	-0.0802197
223	0xbdc0c0cf	-0.09411775
224	0xbcee771b	-0.029109528
225	0x3d986a59	0.07442159
226	0x3cfe7eb6	0.03106628
227	0x3cb4776b	0.0220296
228	0x3d81219b	0.06305238
229	0xbd21c822	-0.039497502
230	0x3d99e221	0.07513834
231	0x3aa19813	0.0012328647
232	0xbc6267c0	-0.013818681
233	0xbd8dea67	-0.06929474
234	0xbe3d664c	-0.18496054
235	0x3c95db3e	0.01829302
236	0xbd8a942b	-0.06766542
237	0xbc88a1e4	-0.016678758
238	0xbd385b8b	-0.045009177
239	0xbdf261c7	-0.11835056
240	0xbdedec3b	-0.11617323
241	0xbe24ac3e	-0.1608133
242	0xbbedc547	-0.0072561833
243	0xbcbcc35e	-0.023042377
244	0xbc3fec15	-0.011714001
245	0x3d323209	0.04350475
246	0xbe39255b	-0.18080656
247	0xbd5a70af	-0.05333012
248	0xbe3202f8	-0.17383945
249	0x3cd4d102	0.025978569
250	0x3cc08735	0.023501972
251	0xbd9d8783	-0.076918624
252	0xbd4e6888	-0.050392658
253	0x3c9594e0	0.018259466
254	0x3c250d67	0.010073996
255	0x3e10fea0	0.14159632

fc2.bias f4 [300]
0	0xbd8092bb	-0.062779866
1	0x3d70afdd	0.058761466
2	0xbac6284c	-0.001511821
3	0x3c227143	0.009914699
4	0xbd069321	-0.032855157
5	0xbd8a83d8	-0.067634284
6	0xbc949704	-0.018138416
7	0xbd8bddb7	-0.06829398
8	0xbba9e316	-0.0051845415
9	0x3e0652df	0.1311755
10	0xbdaef42b	-0.08542665
11	0x3e61bf87	0.22045718
12	0x3c57f5fc	0.013181206
13	0x3def91d7	0.116977386
14	0xbd60878f	-0.05481678
15	0x3e6de896	0.23233256
16	0xbd39bdd8	-0.045347065
17	0x3e2422d1	0.16028906
18	0x3e1b863d	0.15187927
19	0x3e09d406	0.13459787
20	0xbca7e57b	-0.020495167
21	0x3a0efa0c	0.000545413
22	0xbd3049e1	-0.043039206
23	0xbd05f3bd	-0.03270315
24	0x3da0ea5a	0.07857199
25	0x3e4fa66e	0.20278332
26	0xbd821012	-0.063507214
27	0x3dcf620d	0.101261236
28	0x3d035b97	0.03206977
29	0xbc1effbf	-0.009704529
30	0x3d7dc543	0.0619557
31	0x3e25cd77	0.1619166
32	0x3b0732d5	0.0020629663
33	0x3d7e69e7	0.062112715
34	0x3d9ff474	0.078102976
35	0x3db7f3f9	0.08982081
36	0xbd20e5b3	-0.03928156
37	0xbb3d9307	-0.0028926746
38	0xbc5aabb1	-0.0133465985
39	0xbc977997	-0.018490596
40	0x3ca9bfb4	0.020721294
41	0x3cd6857d	0.026186699
42	0x3de7e696	0.11323278
43	0xbd9f7d52	-0.07787575
44	0x3e27bd72	0.16380861
45	0xbd15f2cf	-0.036608513
46	0x3e30b08a	0.17254844
47	0x3d74c593	0.059758734
48	0x3e080755	0.13284047
49	0xbc1d9f25	-0.009620463
50	0x3d42aba9	0.04752699
51	0xbc6e8ee7	-0.014560438
52	0x3b5abf5e	0.0033378224
53	0x3dab97e2	0.08378579
54	0x3c54208d	0.012947214
55	0x3df3773b	0.11887976
56	0x3ca132bb	0.01967751
57	0x3c98e11a	0.018662024
58	0x3d6d68bd	0.057961214
59	0x3d6fb5e7	0.058523085
60	0xbd87a641	-0.06623507
61	0x3da67ec1	0.08129645
62	0xbd3e7ade	-0.046503894
63	0x3dfbaad8	0.12288445
64	0x3d5aca18	0.053415388
65	0x3e46da5f	0.1941924
66	0x3e233b7a	0.15940657
67	0x3cd3bb92	0.025846276
68	0xbc9e3dc2	-0.019316558
69	0xbccb6421	-0.024828019
70	0x3e3c17d1	0.1836846
71	0x3e145cf7	0.14488588
72	0xbccf6127	-0.02531488
73	0x3c80907e	0.0156939
74	0xbd89a5b5	-0.06721059
75	0xbd433aa1	-0.047663335
76	0x3d4af399	0.04954872
77	0x3d084230	0.033266246
78	0x3e06ee6f	0.13176893
79	0x3c8500f9	0.016235815
80	0xbd47d0c4	-0.04878308
81	0x3c137afa	0.009001488
82	0x3e30f35f	0.17280339
83	0x3e1cd11a	0.15314141
84	0xbc400afb	-0.011721368
85	0x3da38085	0.079834975
86	0x3e17be02	0.14818576
87	0xbc62ee1a	-0.013850713
88	0xbd2041f3	-0.039125394
89	0xbd857475	-0.06516353
90	0x3dcf9b28	0.101370156
91	0xbcc0c4ac	-0.02353128
92	0x3daa4862	0.08314587
93	0xbd533ca4	-0.051571503
94	0x3e39ed92	0.18157032
95	0xbcc54c25	-0.02408416
96	0x3e10afc1	0.14129545
97	0xbd955b94	-0.07292858
98	0xbceb8bb2	-0.028753135
99	0xbd744856	-0.059639297
100	0x3e1e4e5d	0.1545958
101	0xbc290bea	-0.010317782
102	0xbd83a8e2	-0.06428696
103	0x3e608225	0.21924646
104	0x3d2b4fac	0.041824028
105	0xbd35d676	-0.04439398
106	0xbd00c443	-0.03143717
107	0x3c0507db	0.008119549
108	0xbd5a9997	-0.05336913
109	0xbd925b7c	-0.071463555
110	0xbc89fdd0	-0.01684466
111	0x3dcb9d81	0.09942151
112	0x3bbd97f3	0.005785936
113	0x3d48e23a	0.04904387
114	0x3e1d6a2b	0.15372531
115	0xbd240f02	-0.040053375
116	0x3d8b4f5d	0.06802247
117	0x3dd5ca8f	0.104390256
118	0x3bfd26c2	0.0077255676
119	0x3e3352ce	0.17512056
120	0x3b8749e3	0.004128681
121	0xbc15684f	-0.009119107
122	0xbd83b79d	-0.06431506
123	0xbd05ab3e	-0.032634012
124	0xbdc8a06f	-0.09796225
125	0x3ca2bc01	0.019865038
126	0xbd7e79da	-0.062127925
127	0x3db8021f	0.089847796
128	0xbb9b724d	-0.0047438503
129	0x3c12f166	0.008968687
130	0x3d289f7a	0.041167714
131	0xbd545f58	-0.05184874
132	0xbd19772e	-0.037467174
133	0xbdb7c24c	-0.08972606
134	0x3e035cd9	0.12828387
135	0xbd63d98b	-0.055627387
136	0x3e19a847	0.15005599
137	0x3d82794b	0.06370791
138	0xbcd728df	-0.026264606
139	0x3df0c82f	0.11756932
140	0xbc237f7c	-0.009979125
141	0xbd97e715	-0.07417122
142	0x3da4518d	0.08023367
143	0xbd921fa4	-0.07134941
144	0xbb4b4529	-0.0031016564
145	0xbccd6204	-0.025071152
146	0xbd32f2fb	-0.043688755
147	0x3e36837b	0.17823593
148	0x3c1c7961	0.009550423
149	0xbd678fb8	-0.056533545
150	0x3de30ded	0.110866405
151	0x3c9c8589	0.019106643
152	0x3d78926c	0.060686514
153	0x3c8612a3	0.016366309
154	0x3c7e33b7	0.0155152595
155	0xbc8def70	-0.017326087
156	0x3ca7d324	0.020486422
157	0xbd6aea47	-0.05735233
158	0x3b692ec0	0.0035580844
159	0xbcd7bca9	-0.026335077
160	0x3ddb94d8	0.10721749
161	0x3dec7015	0.115448155
162	0xbcf87282	-0.03032804
163	0xbc9e7414	-0.01934246
164	0xbd54b8bd	-0.051933993
165	0x3bcc94c3	0.0062433197
166	0x3e05cc3e	0.13066193
167	0x3dd58aab	0.104268394
168	0x3dbf8fb1	0.09353579
169	0xbd27f256	-0.041002594
170	0xbd0f3a14	-0.034967497
171	0x3d9b50a7	0.075837426
172	0x3dd2033d	0.10254524
173	0xbd47e849	-0.04880551
174	0x3b21046e	0.002456929
175	0x3d4c7f6a	0.0499262
176	0x3e2e5425	0.17024286
177	0x3dbfa118	0.09356898
178	0x3d90abb2	0.07063998
179	0x3d1d8b82	0.038463123
180	0xbcd0d6d2	-0.02549306
181	0x3d42d0d6	0.047562443
182	0xbc3ef7bc	-0.011655744
183	0xbcdca779	-0.026935326
184	0xbcab989f	-0.020946799
185	0x3d21d66e	0.039511137
186	0xbb0b0feb	-0.0021219205
187	0x3a0d4ef4	0.0005390488
188	0xbd202d49	-0.039105687
189	0x3d841962	0.06450154
190	0x3dca9d9d	0.098933436
191	0x3dd94930	0.106096625
192	0xbda8e310	-0.08246434
193	0x3dee7e2b	0.116451584
194	0xbd5bfb47	-0.053706434
195	0x3e18d21f	0.14923905
196	0x3df37462	0.11887433
197	0xbd34beb0	-0.044127166
198	0x3d07d9d0	0.033166707
199	0x3e14eaf8	0.14542758
200	0x3d8f01c5	0.069827594
201	0xbd4ed547	-0.050496366
202	0xbcdf5607	-0.0272627
203	0xbd08fc79	-0.0334439
204	0xbceaa7f1	-0.028644534
205	0x3c79fbdc	0.015257802
206	0x3da36bde	0.079795584
207	0x3e1207b9	0.14260758
208	0x3dce4fc3	0.10073807
209	0x3d8cbfc1	0.06872512
210	0x3d214516	0.039372526
211	0x3d06b722	0.032889493
212	0xbd1aa711	-0.037756983
213	0x3e0158c6	0.1263152
214	0xbc81025f	-0.015748201
215	0xbce267cd	-0.027637387
216	0x3e123308	0.1427728
217	0xbcd9a13b	-0.026566138
218	0xbd66e88e	-0.056374125
219	0xbd359702	-0.044333465
220	0xbd075dc3	-0.033048403
221	0x3dcf3524	0.10117558
222	0x3df7d1b8	0.121005476
223	0xbbb7bff1	-0.005607598
224	0x3bd89199	0.0066091535
225	0xbd4a428b	-0.049379867
226	0xbd87fe4f	-0.066403024
227	0xbd2b886d	-0.041878153
228	0x3e40b9f7	0.1882094
229	0x3c86050c	0.016359828
230	0x3ca32964	0.019917198
231	0x3e102b86	0.14079103
232	0xbc5ce72c	-0.01348285
233	0x3ceaa161	0.028641405
234	0x3c83ff2d	0.016112888
235	0x3d075408	0.033039123
236	0x3e425b53	0.1898015
237	0x3db4d59d	0.08829806
238	0x3e226f7a	0.15862837
239	0xbd9418c2	-0.07231285
240	0xbd05a359	-0.032626484
241	0xbc91cc88	-0.017797723
242	0xbd8bd1be	-0.068271145
243	0x3daf87fb	0.08570858
244	0x3d43d211	0.047807757
245	0xbb7afa94	-0.003829633
246	0xbdbf2688	-0.09333521
247	0x3e13e834	0.14444047
248	0xbcf03d3d	-0.029326076
249	0x3d116186	0.035493396
250	0x3e1b1081	0.15143014
251	0xbdc84920	-0.097795725
252	0x3e065f0e	0.13122198
253	0x3e58937b	0.2115001
254	0xbd34f868	-0.04418221
255	0xbd8e9413	-0.06961837

fc3.weight f4 [1, 300]
0	0xbdd0bd71	-0.10192383
1	0x3cd5959b	0.026072314
2	0x3caeafd6	0.02132408
3	0xbd83af1b	-0.06429883
4	0xbdeea424	-0.11652401
5	0xbd437842	-0.04772211
6	0xbde407ba	-0.11134286
7	0xbe978e5b	-0.29600796
8	0xbe679442	-0.2261515
9	0x3ce9fd07	0.028563036
10	0xbdd3a69c	-0.103345126
11	0x3dd1d789	0.10246188
12	0xbe6d9b6a	-0.23203817
13	0x3cf4a341	0.029863002
14	0xbe4109fe	-0.18851468
15	0x3d9b66b4	0.075879484
16	0xbe498e7c	-0.1968326
17	0x3ca8b929	0.020596104
18	0x3d0adb32	0.033900447
19	0x3d888d8a	0.066676214
20	0x3c8c7bed	0.017148936
21	0x3d165efa	0.03671167
22	0xbda4b121	-0.08041597
23	0x3dbb592a	0.09147866
24	0x3c78822c	0.015167754
25	0x3d39b625	0.045339722
26	0xbe1f5a12	-0.15561703
27	0x3d5a70ef	0.053330358
28	0x3cbc8d16	0.023016494
29	0xbc5694bc	-0.0130969845
30	0x3d81c8ab	0.063371025
31	0x3d374541	0.04474378
32	0xbdfdb2b6	-0.12387602
33	0x3ccc4528	0.02493532
34	0x3d22738a	0.039660968
35	0x3cc7b857	0.024379892
36	0xbd76981f	-0.060203668
37	0xbe621cbf	-0.22081278
38	0xbe24010a	-0.16016021
39	0x3d6c7f50	0.057738602
40	0xbe76639c	-0.24061435
41	0xbd9f359b	-0.07773896
42	0x3d048810	0.03235632
43	0xbe83342b	-0.25625739
44	0x3cfb9df6	0.03071497
45	0xbe63d1c6	-0.22247991
46	0x3dac0c51	0.08400787
47	0x3d2ac2b0	0.041689575
48	0x3de58c0b	0.11208352
49	0xbdfe7021	-0.12423731
50	0x3ccebe88	0.025237337
51	0xbe1175da	-0.14205113
52	0xbd364484	-0.044498935
53	0x3c372547	0.011178321
54	0xbccbf750	-0.024898201
55	0x3c7dda76	0.01549398
56	0x3c673ca3	0.014113578
57	0xbda94ff2	-0.082672015
58	0x3d6a4893	0.05719812
59	0x3d0dd8a3	0.03463043
60	0xbe0493bb	-0.1294698
61	0x3db87c7e	0.0900812
62	0xbe801c89	-0.2502177
63	0x3d060bd1	0.032726113
64	0x3d7b7894	0.06139429
65	0x3d35a7b9	0.044349406
66	0x3d4277bc	0.04747747
67	0x3d72ef19	0.059310053
68	0xbe8a9762	-0.2706862
69	0xbdd2d022	-0.102936044
70	0x3d1f9f7f	0.038970467
71	0x3d8bb924	0.06822422
72	0xbe380289	-0.17969717
73	0xbde1fa71	-0.11034096
74	0xbe33c2da	-0.17554799
75	0xbb138ba3	-0.002251365
76	0x3d52f890	0.05150658
77	0x3d698790	0.057014048
78	0x3d3410ca	0.043961324
79	0xbd9cda7c	-0.0765886
80	0x3cf4bbaf	0.02987465
81	0x3cc12914	0.023579158
82	0x3df07c7d	0.11742494
83	0x3d0d08f1	0.034432355
84	0xbdbb77f9	-0.09153742
85	0x3d87e6cb	0.06635817
86	0x3d4d6eae	0.05015438
87	0x3dbc61d9	0.091983505
88	0xbe748555	-0.23878987
89	0xbe0c8f04	-0.13726431
90	0x3c6b79ff	0.014372348
91	0xbe565d67	-0.20934068
92	0x3d34837f	0.044070717
93	0xbe525346	-0.20539579
94	0x3d427fc1	0.047485117
95	0xbe0a0ae3	-0.13480715
96	0x3cd1dfc3	0.025619393
97	0xbe250cb1	-0.16118123
98	0xbe619271	-0.22028519
99	0xbd965b0f	-0.07341587
100	0x3d669b43	0.056300413
101	0xbe2427d1	-0.16030814
102	0xbd7d2c3e	-0.06180977
103	0x3d7b95ea	0.061422266
104	0x3d6aa550	0.05728656
105	0xbe0d12d3	-0.13776712
106	0x3df41159	0.11917371
107	0x3c96739b	0.018365672
108	0xbe0729d9	-0.13199557
109	0xbd57f0d7	-0.052719917
110	0xbe177cd9	-0.1479372
111	0x3d6be582	0.057591923
112	0xbe805c10	-0.25070238
113	0x3d21505d	0.03938328
114	0x3d1a51d5	0.037675697
115	0xbe018e66	-0.12651977
116	0x3d551fb3	0.052032184
117	0x3ca27752	0.019832287
118	0x3d56f2ad	0.052477527
119	0x3d54fbda	0.051997997
120	0xbe9635d0	-0.2933793
121	0xbe322a01	-0.17398836
122	0xbe075875	-0.13217337
123	0x3d3eb1d0	0.046556294
124	0xbe0f44b1	-0.13991047
125	0xbea48378	-0.32131553
126	0xbebac5ec	-0.36479127
127	0x3dd0407e	0.10168551
128	0xbd528e40	-0.05140519
129	0xbca2cdbb	-0.01987349
130	0x3dc0f6bb	0.0942206
131	0x3d0cb8df	0.034355994
132	0xbdae370d	-0.08506594
133	0xbe40e921	-0.18838932
134	0x3db9de96	0.09075658
135	0x3cb6bc70	0.02230665
136	0x3d464e0c	0.048414275
137	0x3dae0fa4	0.08499077
138	0x3d2da744	0.042395845
139	0x3cc147a8	0.023593739
140	0xbe492129	-0.19641556
141	0xbe8f94b5	-0.28043142
142	0x3c9a567d	0.018840069
143	0xbe655f37	-0.22399603
144	0xbdb401e6	-0.087894246
145	0xbd840673	-0.064465426
146	0x3cf8e75d	0.03038376
147	0x3d765aff	0.060145374
148	0x3d047493	0.032337736
149	0xbdc4142c	-0.0957416
150	0x3d2b29df	0.04178798
151	0x3d1613dd	0.036640037
152	0x3c925554	0.017862953
153	0x3d093a0f	0.033502635
154	0x3d142442	0.03616739
155	0x3d08a846	0.033363603
156	0xbcc315cb	-0.023814103
157	0xbe0ef41a	-0.13960305
158	0x3c7fe82a	0.015619317
159	0xbe5a8717	-0.21340595
160	0x3d440732	0.047858424
161	0x3d7bc1f0	0.06146425
162	0xbe974a5c	-0.2954892
163	0xbd0be540	-0.034154177
164	0xbda265bc	-0.079295605
165	0x3c921c74	0.017835833
166	0x3d7eb792	0.062186785
167	0x3cf8e267	0.030381395
168	0x3d153a59	0.036432598
169	0xbd2b9f07	-0.041899707
170	0x3d289d4b	0.04116563
171	0x3d5323b3	0.051547717
172	0x3d9fa4e1	0.0779512
173	0xbdac2e65	-0.084072866
174	0x3cb87439	0.022516357
175	0x3d456caf	0.048199352
176	0x3d92aa1f	0.07161354
177	0x3d318120	0.043336034
178	0x3d569505	0.05238821
179	0x3cc07bfc	0.02349662
180	0xbdf587fa	-0.11988826
181	0x3d065b77	0.03280207
182	0xbc9ed0f8	-0.019386753
183	0xbdb9ed64	-0.09078482
184	0x3e5dea63	0.21671443
185	0x3cdb4ac8	0.026769057
186	0xbced38e5	-0.028957793
187	0x3d41f8a3	0.04735626
188	0xbddc3354	-0.107519776
189	0x3d9d47f9	0.07679743
190	0x3d63225a	0.055452682
191	0x3da9b0d7	0.08285683
192	0xbe42b6fb	-0.19015114
193	0x3d2edf8c	0.04269366
194	0xbe2f730e	-0.17133734
195	0x3d1de934	0.038552478
196	0x3d13a0b8	0.036041945
197	0xbe8bfb77	-0.2734029
198	0x3d856be2	0.06514718
199	0x3d3332f4	0.043749765
200	0x3cedd6a5	0.029033015
201	0xbe49b457	-0.196977
202	0xbdc49d09	-0.096002646
203	0x3aaee2a5	0.0013342692
204	0xbe634f06	-0.22198114
205	0xb8c3895f	-9.323912e-05
206	0x3cb5e8c7	0.022205723
207	0x3cb7ef10	0.022452861
208	0x3d8927f7	0.06697076
209	0x3d13d038	0.036087245
210	0xbdeb5024	-0.11489895
211	0x3c9ad3a6	0.01889975
212	0xbd6502b7	-0.055910792
213	0x3d5fa6a5	0.054602284
214	0x3adafb78	0.0016707024
215	0xbe538868	-0.20657504
216	0x3d8588b2	0.06520213
217	0xbe771404	-0.24128729
218	0xbe845c7c	-0.2585181
219	0xbe4f5ab5	-0.20249446
220	0xbd14d0ec	-0.036332056
221	0x3d190110	0.03735453
222	0x3da6a8d2	0.08137669
223	0xbe397664	-0.18111569
224	0xbe0ceba9	-0.13761772
225	0xbe02ca24	-0.12772423
226	0xbdd03584	-0.10166457
227	0xbaecd648	-0.0018069232
228	0x3d594a68	0.053049475
229	0xbe71e424	-0.23622185
230	0xbd3309ad	-0.0437104
231	0x3d7a342c	0.06108491
232	0xbe1d2228	-0.15345061
233	0x3c29472b	0.010331909
234	0x3e6b92a6	0.2300516
235	0x3d655a8e	0.055994563
236	0x3d925be1	0.07146431
237	0x3ca69c08	0.020338073
238	0x3da3b6f1	0.07993878
239	0xbd3efb53	-0.0466264
240	0xbd036687	-0.0320802
241	0x3d6b33c5	0.05742242
242	0xbdacea8d	-0.084431745
243	0x3d2d4132	0.042298503
244	0x3d5ea9a0	0.054360986
245	0xbdfc33d9	-0.12314577
246	0xbe54bc5d	-0.2077498
247	0x3d08a08c	0.033356234
248	0xbe74960d	-0.23885365
249	0xbeb5ef5c	-0.3553418
250	0x3cb594b0	0.022165626
251	0xbdd0c01f	-0.10192894
252	0x3d13a429	0.036045227
253	0x3dd00ab7	0.10158294
254	0xbd930242	-0.07178165
255	0xbdaba763	-0.08381536
